codecov_model.pth (torch, 3399 bytes, 5 tensors)

0.weight f4 [16, 9]
00000000: 6bbf c4bc 941e a5be 9fa7 a5be 2b98 30bd
00000010: 62d6 8dbe 860c d5bd 246f 933e b015 bf3d
00000020: e6de e0bd d467 aa3d 8b42 8c3d 78ad 47be
00000030: 7ed0 87bd 9933 0d3e 79b4 a33e d725 96bd
00000040: 339a aabe 56b1 6f3e 02bc 13be 3586 07be
00000050: 49b9 a7be 88b5 1a3e 5f79 a5be cf9d 9b3e
00000060: cc9a 10be baed 9dbe 3260 16be db41 2ebe
00000070: f3b1 4abe 16dd 813e c974 7a3e 5687 abbb
00000080: f62d 76bd 000e 773d ce4f 4a3e 1c6b a3be
00000090: f4a2 123e c164 743e 84b3 4e3e bc73 8c3e
000000a0: 2056 4fbe 56ad 9a3e 4ff2 873e 6db3 163d
000000b0: 16f5 8d3e fe54 843d e77b 8dbd ae7b 65be
000000c0: 8b1c 473e 7f0b 8dbe 47d5 52be 1742 8bbe
000000d0: a188 a1be 7f4b 083e b806 333e 9723 babc
000000e0: cb2d 3e3e b7ad ac3d 4903 9dbe 1255 33be
000000f0: bda2 923e e0fd 26be 47a5 133e 08ff a2be
00000100: 9c7d 8b3d 14ce 513e 00cc ef3d e6d3 9b3d
00000110: b794 84be 86ac 473e 6f04 df3d 0af7 8e3e
00000120: b4fb a3bd 03ab fdbd 0704 963e 58bb a63e
00000130: f5ac 4ebe 33c2 9cbe eb10 1eb9 2dd6 64be
00000140: 050e 0cbd 6066 753e 07ae 44be baad bfbd
00000150: dc80 82be f690 abbe 7565 bdbd b62f dd3c
00000160: 899d 553d a346 5e3e acc0 f83c 2fc9 6a3d
00000170: b91f 3c3e b623 1f3e 0b52 aebe 0e6e 7d3e
00000180: fb8c 903e 93c7 663e 102c 3bbe 1d3b 11be
00000190: 4e30 ccbd 2697 16bc 3e2d 393d b62b 7cbd
000001a0: 6107 e83d fba5 8cbe d4b2 33be a15b 5d3e
000001b0: 7d4c 5e3e 571d 67be b029 95be e157 c0be
000001c0: 168d 85be ff3d 83be a053 3abe 58df 1d3e
000001d0: 2ea6 ed3c 82b5 9dbd de4f 3d3e e4d2 2b3e
000001e0: 116c e03d 7ac6 87be 4278 08bd f81f 5c3e
000001f0: 7360 d0bd f6ab 883d 4659 76be 6f77 82be
00000200: 5455 973e 3328 a13d d01d 93be 18d2 91be
00000210: a3c2 8abe 48ab 8e3e 4468 91bd a828 a1be
00000220: d613 12bc 5665 f9bc 9652 4abe 5601 893a
00000230: 9b44 7d3e 98ec 63be 9345 643e 0b69 05bd
-0.024017056 -0.32249892 -0.32354447 -0.04311387 -0.27702624 -0.10402779 0.2879573 0.093303084
-0.109800145 0.08320585 0.068486296 -0.19499767 -0.066315636 0.13789214 0.31973627 -0.07331436
-0.3332077 0.23407492 -0.14427188 -0.1323479 -0.3275855 0.15108311 -0.3231916 0.30393836
-0.1412155 -0.30845433 -0.14685133 -0.1701731 -0.19794445 0.25363988 0.24458613 -0.005234639
-0.060102426 0.060316086 0.19757006 -0.31917655 0.14319974 0.2386656 0.20185667 0.27432048
-0.20247698 0.3021037 0.26552054 0.036792208 0.27726048 0.064615235 -0.06908398 -0.22410461
0.19444482 -0.27547833 -0.20589171 -0.2719886 -0.31549552 0.1331005 0.17483032 -0.022722049
0.18572156 0.08431571 -0.3066657 -0.1751292 0.28639784 -0.16307783 0.14418517 -0.31835198
0.068110675 0.20488769 0.11708832 0.07608776 -0.2589471 0.19499406 0.108895175 0.2792285
-0.08006993 -0.123861335 0.29299948 0.32564807 -0.20183165 -0.30616912 -0.00015074357 -0.22347327
-0.034193058 0.23964834 -0.19207011 -0.093593076 -0.25488937 -0.33509034 -0.09247867 0.02700029
0.05215219 0.21706633 0.03036531 0.05732077 0.18371476 0.15540966 -0.3404697 0.24749014
0.2823256 0.22537069 -0.18278527 -0.14182706 -0.09970151 -0.00919131 0.045209162 -0.061565123
0.113295324 -0.27470383 -0.17548686 0.21616985 0.21708865 -0.22569786 -0.29133368 -0.37567046
-0.26084203 -0.25633237 -0.18195963 0.1541723 0.029009905 -0.077006355 0.18487498 0.16779667
0.10958112 -0.26518613 -0.03331781 0.2149657 -0.10174646 0.06673424 -0.24057493 -0.25481746
0.29557288 0.078689955 -0.28733683 -0.284806 -0.2710162 0.27865052 -0.07099965 -0.3147633
-0.008915862 -0.030443829 -0.19758067 0.0010452669 0.24733202 -0.22258222 0.22292165 -0.03257088

0.bias f4 [16]
00000000: c8c1 513e 6079 70be ae68 adbe 0c52 9abe
00000010: 16b6 993e ec85 eb3d 7e3e b03e 5e06 a43d
00000020: b1e8 713e 4bd4 13be dfc3 94be ba12 7cbe
00000030: 7db3 97be 9e41 72be 9ec3 6ebe 6b25 91bc
0.20484078 -0.23483801 -0.33868927 -0.30140722 0.30021733 0.11500153 0.34422678 0.08009027
0.23623921 -0.14436452 -0.29055688 -0.24616519 -0.29629126 -0.23657843 -0.2331681 -0.017718038

2.weight f4 [8, 16]
00000000: 2c01 9ebd 8f63 8d3d 29e7 a53c 9bc8 c93d
00000010: b7c7 6a3e 00f4 76bd e13c 843d 92f5 41be
00000020: 84d9 753e 94d6 b93d 4d17 a53d 9b42 95bd
00000030: ce36 89bd 5eb8 763d ed03 ac3d e458 54be
00000040: 80fb 28be bbeb 60be 92c7 9c3d 645b 07be
00000050: 22f8 e3bb 67c2 83bd 6f1f 4f3e ed65 26bd
00000060: 617e 523e f84b 3ebe 248c 833c ed6e 503e
00000070: 3edc 0d3e 7ac7 21be d264 533e c4b2 f23d
00000080: ae04 5cbe 2cec 5b3e 15a7 8e3c 708e 4c3e
00000090: 67ad 743e fabb 213e 7914 823e 8e31 503d
000000a0: 1e66 82bd 5b6c d43c a89a d73c ed92 b83d
000000b0: 9692 dabb bfc4 8e3d 3824 4e3e 009c 2d3c
000000c0: f8bc c33d e8c2 d3bd ec38 453e 2d93 69be
000000d0: 47d7 053e 9ba0 203c d678 debd 5e5e 50be
000000e0: 4d6e f8bd 8301 58be 9919 593e 068e 053e
000000f0: 1aab 433e 8643 643e 4de6 68be 5c6e ddbd
00000100: ac9d 8abd 031f 043e 6e4e 143e bcf4 843d
00000110: 4fe1 8a3d 8ed0 8b3d e4d4 0a3e ad6b e33c
00000120: d302 043e d06c 49be c68f 383e 145b 88be
00000130: 7ba5 db3d 3f7f 3d3e 8201 16be 80dc bc3b
00000140: f81b c3bd 3f54 773d c1c7 733e 50f8 8b3d
00000150: 2cc4 3cbe 12dd 003e 5cc7 343d 4982 63bd
00000160: 73fc dfbd 17b8 143e 2de2 6d3e b447 fd3c
00000170: ba74 163e b41b cd3d 2a49 1ebe d2ab 0b3e
00000180: 7410 55be c034 b43c 202f 75bc 1e48 0e3e
00000190: e4c5 7dbe 80dd 413b 5489 4cbe 94c8 843d
000001a0: 7069 15bd e2ad 3f3e bc74 443e ce07 0ebe
000001b0: 7c0e e13d 102a 5abd 102c ee3d 56f1 2b3e
000001c0: dcf2 a83d c94e 35bd 36fb 1d3e 2c8a a33d
000001d0: 25c9 2e3e 4331 f3bd 99ce 20be f0f9 d1bc
000001e0: 3ff6 1abe 966a 2abe 6911 373e e464 993d
000001f0: 8859 9f3d 314c 44be a8a2 cebd 48f9 013d
-0.07715067 0.06903755 0.020251827 0.098527156 0.22927748 -0.06029129 0.06456924 -0.18941334
0.24008757 0.09074131 0.08061085 -0.072880946 -0.06699906 0.06023442 0.08399186 -0.20737034
-0.1650219 -0.21964924 0.076552525 -0.13218457 -0.00695707 -0.06433564 0.20226835 -0.040624548
0.20556022 -0.18583667 0.016058035 0.20354815 0.13853547 -0.1579875 0.20643929 0.11850503
-0.2148616 0.21476811 0.017413655 0.1997621 0.23894273 0.15794364 0.25406244 0.05082851
-0.063671336 0.025930574 0.026318863 0.09012399 -0.0066703064 0.0697112 0.20131004 0.010596275
0.09557527 -0.1033991 0.19259995 -0.2281005 0.13070403 0.009803916 -0.108628914 -0.20348498
-0.12130413 -0.21094327 0.21201171 0.13042459 0.19108239 0.22291383 -0.22744103 -0.10812065
-0.06768355 0.12902455 0.14483044 0.06491992 0.067812555 0.06826888 0.13557774 0.027761305
0.12891702 -0.19670415 0.18023595 -0.26631987 0.10724922 0.18505572 -0.14649013 0.0057635903
-0.09526819 0.060383078 0.23806669 0.06834471 -0.18434209 0.12584332 0.044135436 -0.05554417
-0.10936823 0.1452335 0.2323081 0.03091798 0.14692965 0.100150496 -0.15457597 0.13639763
-0.20807058 0.02199781 -0.014964849 0.13894698 -0.2478252 0.0029581487 -0.19974262 0.0648357
-0.036477506 0.18718675 0.19185156 -0.13870165 0.10989091 -0.05326277 0.11629498 0.16791281
0.08249447 -0.04426459 0.1542786 0.079853386 0.17068918 -0.1187463 -0.15703811 -0.025631875
-0.15132998 -0.16642222 0.17877735 0.074899465 0.077807486 -0.1916969 -0.10089618 0.031731874

2.bias f4 [8]
00000000: 1640 e3bd 115e 4f3d 9b99 9dbc c5a1 783e
00000010: 6469 1b3d 971a 12bd 921d 443e 26e0 673d
-0.11096208 0.050626818 -0.019238284 0.2428046 0.037942305 -0.03566989 0.19151905 0.05661025

4.weight f4 [1, 8]
00000000: 0bf0 86be 1d1f b13d bb13 32be 7c83 ffbd
00000010: 718d 123d 09a7 803e 13d6 b33e e1c0 95bd
-0.26355013 0.086485125 -0.17390339 -0.124762505 0.03577942 0.25127438 0.35124263 -0.07312179
