collection_js_model.pth (torch, 3447 bytes, 5 tensors)

0.weight f4 [16, 9]
000000 e4 d8 00 be 98 90 c5 bc 01 3c 88 3e c7 95 21 bc
       -0.12582737 -0.0241168 0.2660828 -0.00986237
000010 8b 5f 51 bd 9b 14 13 3b 1e 01 e0 bc 69 00 c9 3b
       -0.051116508 0.0022442702 -0.027344283 0.006134082
000020 4f bf 85 3e 97 7d 4c 3c 05 8f b7 bd b3 9a 13 bd
       0.2612252 0.012481115 -0.08962826 -0.036036205
000030 99 61 24 be 60 38 c4 3d 1c 83 05 3c 89 b5 46 be
       -0.16052856 0.09581065 0.008148935 -0.19405188
000040 4e 49 ca 3d 90 04 71 3e b1 fc 65 bd 09 2e 39 3e
       0.09877263 0.23536897 -0.05614919 0.18083967
000050 c6 53 27 be d5 85 39 be 7b eb 46 3c 2d 63 8f be
       -0.16340551 -0.18117459 0.012141104 -0.28005353
000060 93 b3 d4 bd 41 ce 34 bd 0b 91 0c 3e 6c 58 55 be
       -0.103858136 -0.04414201 0.13727205 -0.20834512
000070 27 91 44 3e 70 63 24 3e 7a c9 c7 3d 79 05 57 bc
       0.19195996 0.16053557 0.097552255 -0.013123863
000080 43 9f 51 bd 17 bc 90 3a 60 8e e7 bd 9e 69 7b be
       -0.051177274 0.0011042383 -0.11306453 -0.24552009
000090 79 0a c6 bd cd 18 1f 3e 4a dc f7 bb 83 81 54 3e
       -0.09669966 0.15536804 -0.0075641023 0.2075253
0000a0 92 7c 86 3e 88 c7 a8 3e 02 d2 28 be d2 80 5e 3e
       0.26266915 0.3296473 -0.16486362 0.21728829
0000b0 fe 8a 0f be b5 34 a9 be 47 32 7e 3d a1 c7 ac bd
       -0.14017865 -0.33048025 0.062059667 -0.08436514
0000c0 30 a3 06 3e 5a 34 80 be 1b 0d a5 bd 81 3d a0 bd
       0.13148189 -0.2503994 -0.0805914 -0.07824231
0000d0 88 75 42 be d5 9f 73 be 16 e6 2e bd 09 4e 17 be
       -0.18990147 -0.2379144 -0.042699896 -0.14775862
0000e0 d6 1e 34 be 76 71 c5 3d c3 85 84 be 72 af 88 be
       -0.17589888 0.096407816 -0.25883302 -0.26696354
0000f0 6f 0c ad 3d 95 f2 13 3e 90 f7 3f bd d4 46 07 3d
       0.08449637 0.14448006 -0.046866953 0.03302653
000100 c2 91 b6 3d 74 98 4d be b6 dd dd 3d ab 63 20 3e
       0.0891452 -0.20077688 0.10833304 0.1566302
000110 1f 7e e7 3d 5d 76 a2 3e 80 10 68 be ed 5e 7f be
       0.113033526 0.3173093 -0.22662544 -0.24938555
000120 36 cc 7f be de 3f 71 be b6 d3 80 be 1b 87 92 bd
       -0.24980244 -0.2355952 -0.25161523 -0.071546756
000130 a6 97 8d 3d d6 ef 1b 3c ca e0 93 be 56 d4 33 3c
       0.0691369 0.009517631 -0.28882438 0.010975918
000140 f6 76 86 be e5 43 a3 be 91 89 8f 3d de be b9 bd
       -0.26262635 -0.31887737 0.070086606 -0.09069608
000150 09 9e a4 be 22 d4 3b 3e 18 43 20 3e 94 8e 90 be
       -0.3215182 0.18342641 0.15650594 -0.28233778
000160 5b ee 14 be 07 b6 0e bd 44 a5 38 bd 9c 6f 23 3e
       -0.1454405 -0.034841564 -0.045079485 0.15960544
000170 0a c2 79 be 94 76 59 be c6 d3 fc 3d 8e fc 97 3d
       -0.24390426 -0.2123664 0.1234508 0.07421218
000180 29 90 1b bd 61 42 67 be 77 a0 9b be 6c 08 84 3e
       -0.03797928 -0.22583915 -0.30395862 0.25787675
000190 c7 23 ec bd 40 e1 b2 3e 8a 99 96 be b5 33 cf 3e
       -0.115302615 0.34937477 -0.29414016 0.40469137
0001a0 0d b6 6f 3e 68 6e 11 be 87 25 83 3e da b6 0e be
       0.2340929 -0.14202273 0.2561457 -0.1393694
0001b0 8b ce 42 be 45 85 05 3e 50 51 a7 bc 06 90 a4 be
       -0.19024102 0.1303912 -0.020424515 -0.3214113
0001c0 b3 a5 69 be b2 7c 54 be d9 44 83 3c 5c ef a2 3c
       -0.22817115 -0.20750692 0.01602404 0.019889526
0001d0 b4 d5 89 3d 53 17 6b 3d 49 0f 13 bd e0 05 43 be
       0.06730214 0.05739529 -0.03590325 -0.1904521
0001e0 ab 5a 95 be 8a 11 d2 3d 3b ad 25 be 7a 82 92 be
       -0.29170737 0.102572516 -0.16179363 -0.2861517
0001f0 9e 42 8c 3c 2e 7c 13 be 66 fc 2f bd c7 51 7f 3e
       0.01712161 -0.1440284 -0.042965315 0.2493354
000200 56 38 06 bd ef c7 03 be 61 45 61 be 00 6b 99 be
       -0.03276857 -0.12869237 -0.21999122 -0.29964447
000210 16 ca 48 3e 0a f0 94 bd e9 f5 55 be 73 7f 82 be
       0.1960834 -0.07272346 -0.20894589 -0.2548786
000220 ad ed a9 bd 91 53 27 3e 49 49 da 3d 62 b2 eb 3d
       -0.08297286 0.16340472 0.10658509 0.11508633
000230 92 5a 8d 3d 83 f8 95 be b1 a3 d5 bd 42 83 89 3e
       0.069020405 -0.29291162 -0.10431612 0.26857954

0.bias f4 [16]
000000 f7 7c ad 3e a8 6c 00 3e 83 1f 82 3b bb a9 5a be
       0.33884403 0.12541449 0.0039710416 -0.2135381
000010 95 ea 13 bd f2 32 ab be 8b 45 99 3e a2 2b d2 3d
       -0.036112387 -0.33437306 0.2993587 0.102622285
000020 a4 f2 a9 3e 19 51 91 be 09 80 9e bc 21 15 b5 bc
       0.33192933 -0.28382185 -0.019348161 -0.022104802
000030 1f 8b 8f 3e c7 1b 0c be 46 19 3c be 76 fe 51 be
       0.28035828 -0.13682471 -0.18369016 -0.20507225

2.weight f4 [8, 16]
000000 75 52 23 3d 14 76 5b bd 5d 36 60 3d 65 e8 77 3d
       0.03987356 -0.053579405 0.054739345 0.060524363
000010 41 65 7f 3e 13 27 95 bd b7 41 31 be 85 ba 7f bd
       0.24940969 -0.072828434 -0.17310224 -0.06243374
000020 98 97 79 bd b0 86 53 be c1 dd 2d 3e 98 d8 36 be
       -0.060935587 -0.20656848 0.16979124 -0.17856061
000030 00 a5 87 3e 3a 1d 2e 3e c0 6f 76 bd 25 00 43 3d
       0.26493073 0.17003337 -0.060165167 0.04760756
000040 8a 51 32 3e 1a 55 fb bd 4e 7e c8 3d 84 5b 20 bd
       0.17413917 -0.12272091 0.09789716 -0.039149776
000050 e8 42 4b 3d 9f 24 69 bc a6 48 84 3e 6d 86 a8 3e
       0.049624354 -0.014229923 0.25836676 0.3291506
000060 de f0 0d 3e 5a 04 18 3e c6 ed 29 bd db 3d 70 3e
       0.13861415 0.1484541 -0.041486524 0.23461096
000070 11 41 64 be 94 2c 9c bd f0 e9 79 3d 55 7b d4 bd
       -0.22290446 -0.0762569 0.061014116 -0.10375086
000080 a8 84 c1 3d ad c2 e4 bd 20 1c 83 3e 85 6a e3 3c
       0.0944913 -0.11169944 0.25607395 0.027760753
000090 a2 2d 11 3d 2a 02 6d 3d 7e 8c 6c 3e 6a b7 f8 bd
       0.03544391 0.057863392 0.23100469 -0.121443585
0000a0 d2 cd 5f 3e 66 46 5b bc 61 7f 14 3e ab 9a 6d bd
       0.21855858 -0.0133834835 0.14501716 -0.05800883
0000b0 72 73 69 be 9e 82 7a 3d d2 ca 02 be 0c c8 44 be
       -0.22797945 0.061159723 -0.12772682 -0.19216937
0000c0 ba 24 45 3e 06 65 03 3e ed 8b 5e be ae 2c 71 3e
       0.19252291 0.12831506 -0.21733065 0.235522
0000d0 20 04 81 be fc d1 13 be 45 b3 f8 3d 0b c5 05 3e
       -0.2519846 -0.14435571 0.12143568 0.13063447
0000e0 18 1d d6 bd e2 34 3a be ac 76 1d be f3 84 0a 3e
       -0.10454768 -0.18184236 -0.15377301 0.13527279
0000f0 b9 76 10 3e 81 0a 45 be 8d 18 39 be 2f 06 46 be
       0.14107789 -0.19242288 -0.18075772 -0.19338296
000100 27 7c 6b be 3f e0 c5 3d bc b4 b5 bc 53 e7 e6 bd
       -0.22996579 0.09661912 -0.022180907 -0.1127459
000110 bd 8e b6 3c 6f d3 09 be 00 b7 c3 3d b3 fa 47 be
       0.02228486 -0.13459562 0.09556389 -0.19529228
000120 ce 72 43 be be 8a 45 be 74 75 f2 bd dc d5 22 be
       -0.19086763 -0.19291207 -0.11838809 -0.15901893
000130 70 d8 e6 3c 18 2b 5f be cd 25 f5 bd 36 9a ad 3d
       0.028179377 -0.21793783 -0.119701006 0.08476679
000140 35 a1 0d 3e 3b f0 09 3d c9 7a 08 bd 32 5b 59 be
       0.13831027 0.033676367 -0.033320222 -0.21226195
000150 d7 5d 54 bd b0 ae 35 bd 22 8b 40 be 43 4b 26 be
       -0.051847305 -0.044356048 -0.18803075 -0.16239648
000160 60 94 c7 bd 6c 41 5e 3e 8c fb 1a be 2a 47 7a 3e
       -0.09745097 0.21704644 -0.1513502 0.2444121
000170 dc a3 a6 3d da 99 41 3d 82 c5 12 be 43 3e e9 bd
       0.081367224 0.047265865 -0.14333156 -0.113888286
000180 65 47 86 3e 37 89 a8 3d 36 62 fc 3b c8 a8 70 bd
       0.26226345 0.08229297 0.0077021373 -0.058754712
000190 eb fe 3b be b8 e5 5d be 31 5d a8 bd 18 e3 55 be
       -0.18358962 -0.21669662 -0.082209 -0.2088741
0001a0 4c 37 48 be 66 02 0b be 56 80 a6 bd 33 f3 22 be
       -0.19552344 -0.13575134 -0.08129947 -0.15913086
0001b0 5b ea 23 be 40 fa 33 3c eb 83 40 3e e2 0d 4c be
       -0.16007368 0.010984957 0.18800323 -0.19927171
0001c0 63 a5 24 3e c3 11 21 3e 4b 9f 81 3d 19 93 e6 bb
       0.16078715 0.15729432 0.06329211 -0.0070365784
0001d0 76 37 66 3b 3c 14 98 bd 29 88 ce 3d 71 e4 ce bd
       0.0035128272 -0.074257344 0.10084564 -0.101021655
0001e0 a8 ed 6a be 88 90 c0 bd 68 78 04 bd d5 d3 3b 3d
       -0.22942221 -0.09402567 -0.03234139 0.045856316
0001f0 01 b6 5b 3e 22 c4 f1 bd 39 69 ea bd 84 20 61 bd
       0.21456148 -0.118049875 -0.11445851 -0.05496265

2.bias f4 [8]
000000 62 2d a7 3d ea 3c ce 3e 01 bc e7 3d 6e fa 56 be
       0.08162953 0.4028085 0.11315156 -0.20993969
000010 9a b5 83 bd ad ae 22 be 4c 39 79 3d 65 df a0 3e
       -0.06431122 -0.15886946 0.06084566 0.31420437

4.weight f4 [1, 8]
000000 13 6d c2 be a7 89 7d bd 0e 21 a1 be cb 3c 8f 3e
       -0.37973842 -0.061898854 -0.3147053 0.2797607
000010 fb e4 80 3e e5 ef 2b be c1 be 11 be 60 33 a8 bd
       0.25174698 -0.16790731 -0.14232923 -0.08212924
