node-forge_model.pth (torch, 3423 bytes, 5 tensors)

0.weight f4 [16, 9]
-0.05241851 0.17216346 0.19228286 0.27275264 -0.21805587 0.29143053 0.2140874 -0.14439104
-0.10845558 -0.2831715 0.18321711 -0.2803222 0.019010488 -0.039595276 -0.14194818 -0.12884218
-0.31964174 0.25206518 0.1768711 -0.028146474 0.23515539 0.1373444 0.011277593 0.0048006577
-0.078725584 -0.1956916 0.020124532 -0.16604818 0.041372314 0.27714625 0.04411622 -0.25341952
0.10845277 0.2884806 -0.13663824 -0.011671555 -0.117664605 -0.12510712 0.2492619 0.12964799
0.2755972 0.29200575 0.041086446 -0.1814462 -0.13666452 -0.08942701 0.11557477 0.19199681
0.03457557 -0.18684644 0.054771025 -0.14336865 -0.114692025 0.260906 -0.25102925 0.021027368
-0.13762061 -0.16339144 0.105130754 -0.15797369 -0.036090694 0.260102 -0.18310182 0.11881766
-0.1985462 -0.24514641 -0.17827788 -0.13380405 0.2419006 0.24856012 0.34901008 0.1276393
0.06501503 -0.18321475 -0.042130332 0.08051668 -0.08569124 0.30248252 -0.19894141 0.062709235
0.22838496 -0.060150582 -0.17905585 0.23244451 0.13409518 -0.3198514 0.03099724 -0.051469766
-0.25969177 -0.19135852 -0.17348324 -0.27320486 0.15344879 0.2254122 -0.0071403487 0.31125617
-0.23962702 -0.1649274 0.3412016 0.20763314 0.25529087 -0.20515007 0.0013373827 -0.03253938
-0.2889369 -0.3138431 0.29567486 -0.32988125 -0.003996585 -0.322753 -0.12497074 0.27354208
-0.12314687 0.13774683 -0.19534352 0.31592786 -0.16496554 -0.08497736 0.22142878 0.108360946
-0.2694322 -0.10235246 -0.02982947 -0.0007714098 0.08981455 -0.2767103 -0.28245538 -0.25432003
-0.22660558 0.023235863 -0.019327814 0.32137337 0.15285987 -0.19125757 0.3389162 0.24154602
0.23675 -0.025631933 -0.1490086 0.10285263 0.33128056 0.22720234 -0.12383051 0.3786707
00000000: cbb4 56bd 9e4b 303e cce5 443e 3ca6 8b3e
00000010: 0a4a 5fbe 6236 953e ba39 5b3e 3fdb 13be
00000020: f61d debd dbfb 90be 449d 3b3e 6486 8fbe
00000030: e2bb 9b3c a82e 22bd dd5a 11be 34ef 03be
00000040: 15a8 a3be b00e 813e b31d 353e 6f93 e6bc
00000050: 93cc 703e 03a4 0c3e a7c5 383c d64e 9d3b
00000060: e13a a1bd 6163 48be 34dc a43c 8908 2abe
00000070: 0476 293d 1de6 8d3e 36b3 343d 34c0 81be
00000080: 7c1c de3d bbb3 933e e5ea 0bbe 0d3a 3fbc
00000090: 24fa f0bd 151c 00be 833e 7f3e 71c2 043e
000000a0: 141b 8d3e c781 953e 434a 283d 08cd 39be
000000b0: c9f1 0bbe 8225 b7bd 77b2 ec3d d09a 443e
000000c0: 1d9f 0d3d ac54 3fbe 9557 603d 3bcf 12be
000000d0: a7e3 eabd 7995 853e e886 80be 9641 ac3c
000000e0: 6bec 0cbe 1650 27be cb4e d73d dbc3 21be
000000f0: d6d3 13bd 172c 853e 0b7f 3bbe ac56 f33d
00000100: b24f 4bbe a907 7bbe 7a8e 36be ee03 09be
00000110: cab4 773e 8b86 7e3e 73b1 b23e e0b3 023e
00000120: 9a26 853d a69c 3bbe db90 2cbd eee5 a43d
00000130: e47e afbd fdde 9a3e 4cb7 4bbe b36d 803d
00000140: bfdd 693e 7560 76bd 6b5a 37be ef05 6e3e
00000150: 3f50 093e 90c3 a3be eded fd3c f6d1 52bd
00000160: 52f6 84be 7df3 43be 97a5 31be 82e1 8bbe
00000170: ae21 1d3e 75d2 663e 96f9 e9bb f85c 9f3e
00000180: c960 75be bae2 28be fab1 ae3e c89d 543e
00000190: 7cb5 823e dc12 52be 1e4b af3a 0348 05bd
000001a0: 8aef 93be 0bb0 a0be b262 973e 32e6 a8be
000001b0: c9f5 82bb e23f a5be a9f0 ffbd b50d 8c3e
000001c0: 6d34 fcbd 810d 0d3e 2208 48be 4cc1 a13e
000001d0: baec 28be 9c08 aebd 3abe 623e 58ec dd3d
000001e0: 04f3 89be 2b9e d1bd ef5c f4bc 6f38 4aba
000001f0: b1f0 b73d f9ac 8dbe fe9d 90be 3c36 82be
00000200: 4b0b 68be 2359 be3c 5d55 9ebc 0d8b a43e
00000210: 4c87 1c3e 06d9 43be 6d86 ad3e d757 773e
00000220: 986e 723e 0ffa d1bc b695 18be 66a4 d23d
00000230: 9b9d a93e bba7 683e da9a fdbd 20e1 c13e

0.bias f4 [16]
-0.14818949 -0.32111937 0.09049547 0.30022725 -0.14318874 0.021461219 0.1811994 0.15283665
0.13176045 0.10384447 0.07991158 0.13537155 0.025790945 0.19862705 -0.03270218 -0.026687933
00000000: fcbe 17be c269 a4be b055 b93d 63b7 993e
00000010: 12a0 12be 70cf af3c 568c 393e 3681 1c3e
00000020: 36ec 063e 69ac d43d afa8 a33d d79e 0a3e
00000030: 8847 d33c e464 4b3e b9f2 05bd a7a0 dabc

2.weight f4 [8, 16]
-0.1564109 -0.2199915 -0.14679551 0.07249072 -0.14445934 -0.04622996 0.12811738 0.2171337
0.1256944 0.11508921 -0.0024119914 0.024766266 -0.066713214 0.024866462 -0.045212626 -0.19388154
0.22421007 -0.14932974 0.13988493 -0.18553044 0.09490687 0.0442175 0.24677965 -0.13009764
-0.14876263 -0.18271594 -0.1402301 -0.09940094 0.20730786 -0.047142018 0.13725632 0.15436263
0.15314928 0.13295673 0.097578414 0.042487107 -0.048749764 -0.23442498 0.089563996 0.054439303
-0.15785293 0.1542228 0.047149114 0.03543136 0.015966937 0.14412704 -0.038987204 0.20288526
0.06452149 -0.08487477 -0.18201458 -0.22343056 0.007681483 -0.20536534 0.15502474 0.2324218
0.11591459 0.11752411 0.2650178 -0.22376323 -0.19902386 -0.22953016 0.2623283 0.12886433
-0.19171749 0.19277462 0.15657708 0.055756364 0.16755086 0.11936146 0.029288143 -0.2486591
0.101613484 -0.24826086 -0.11230087 0.057754498 -0.072283804 0.2239002 -0.1407502 -0.1527449
0.13724704 -0.04460416 -0.021812646 -0.2507763 0.21159862 0.15904155 -0.046485424 -0.17946865
-0.23095334 0.03470987 -0.08309329 -0.029426394 0.041465648 -0.19978811 -0.23251703 -0.035431474
-0.11822322 -0.19164303 0.074513406 -0.24540743 0.093298316 0.06001869 -0.093629956 -0.05965057
0.13441345 -0.17466533 -0.034892797 -0.21850523 0.21715531 0.20203069 -0.1502446 -0.022742242
-0.07482239 -0.25325269 0.14580594 0.13687201 0.11543933 -0.021865552 0.091683745 0.17535996
0.14742815 -0.18180898 0.10201385 0.21239822 -0.00412108 -0.17772858 -0.10155172 -0.16604337
00000000: 2e2a 20be 7445 61be 9051 16be 0476 943d
00000010: 26ed 13be a05b 3dbd 3431 033e 4c58 5e3e
00000020: 08b6 003e e4b3 eb3d 8012 1ebb a0e2 ca3c
00000030: f0a0 88bd c0b4 cb3c e030 39bd e288 46be
00000040: 5397 653e e5e9 18be ff3d 0f3e b1fb 3dbe
00000050: 885e c23d 691d 353d ceb3 7c3e 5138 05be
00000060: 3b55 18be e319 3bbe 7b98 0fbe b892 cbbd
00000070: 8348 543e fd17 41bd ec8c 0c3e 3d11 1e3e
00000080: 2ad3 1c3e cf25 083e 31d7 c73d f606 2e3d
00000090: d5ad 47bd 1a0d 70be 546d b73d bffb 5e3d
000000a0: 33a4 21be 95ec 1d3e 6e1f 413d 7920 113d
000000b0: 18cd 823c 0a96 133e 0cb1 1fbd 27c1 4f3e
000000c0: d823 843d d3d2 adbd 0862 3abe fbca 64be
000000d0: f3b4 fb3b 4b4b 52be cebe 1e3e fbff 6d3e
000000e0: a164 ed3d 7bb0 f03d 6ab0 873e 3022 65be
000000f0: e9cc 4bbe f409 6bbe e54f 863e 03f5 033e
00000100: 9751 44be b666 453e be55 203e c960 643d
00000110: 7492 2b3e c873 f43d b0ed ef3c 7ea0 7ebe
00000120: bb1a d03d 1838 7ebe 00fe e5bd fb8f 6c3d
00000130: 8809 94bd 1846 653e d220 10be 2969 1cbe
00000140: 7d8a 0c3e dab2 36bd 6fb0 b2bc c065 80be
00000150: 4fad 583e cadb 223e 8067 3ebd a1c6 37be
00000160: 087f 6cbe f02b 0e3d d12c aabd 9f0f f1bc
00000170: e2d7 293d 4195 4cbe f218 6ebe 9820 11bd
00000180: 041f f2bd 123e 44be 7c9a 983d 164c 7bbe
00000190: 3013 bf3d 28d6 753d 10c1 bfbd 2854 74bd
000001a0: aea3 093e 78db 32be c0eb 0ebd d6bf 5fbe
000001b0: f65d 5e3e 22e1 4e3e b8d9 19be f04d babc
000001c0: 7b3c 99bd 56aa 81be 274e 153e 2d28 0c3e
000001d0: 756b ec3d 631f b3bc b0c4 bb3d 9091 333e
000001e0: 68f7 163e 222c 3abe a3ec d03d eb7e 593e
000001f0: 200a 87bb 7bfe 35be 59fa cfbd 4607 2abe

2.bias f4 [8]
-0.17334068 -0.09360428 -0.15399702 -0.21636067 0.17827055 0.016543113 0.039692402 0.0829235
00000000: 3880 31be 9ab3 bfbd 65b1 1dbe a78d 5dbe
00000010: 8e8c 363e 6c85 873c 8094 223d ccd3 a93d

4.weight f4 [1, 8]
-0.033124052 -0.18800832 -0.037677754 -0.34544235 0.11771737 0.24568126 0.23641904 0.24963944
00000000: 16ad 07bd 4185 40be fd53 1abd d2dd b0be
00000010: ce15 f13d de93 7b3e d517 723e 7ba1 7f3e
