node-notifier_model.pth (torch, 3447 bytes, 5 tensors)

0.weight f4 [16, 9]
0.1784868 -0.032256167 0.052701157 0.2702734 0.022655606 -0.15673916 0.034291785 -0.28647465
-0.30580148 -0.024451654 0.13745865 -0.28064847 -0.24451101 0.045012236 0.16457312 0.11542754
0.006279429 -0.13080244 -0.31597686 0.17778766 0.047159452 0.27377895 -0.092777 -0.15768139
-0.22388828 -0.099366896 0.15612596 0.28932053 0.3331938 0.004928609 0.26796612 -0.21045204
0.16587558 0.25100636 0.008527384 -0.01774203 -0.044800773 0.05986719 0.13358109 0.28822175
-0.2494607 -0.011469158 -0.20239194 -0.14052568 0.053299308 -0.20779496 -0.1322425 -0.06382098
-0.20041405 0.1489782 0.2543505 0.31106085 0.3339239 0.042140227 0.15377197 -0.26461294
-0.1867075 0.15662028 -0.20865606 0.31374153 0.32534224 -0.16270255 0.122107126 -0.26739806
0.10054454 0.2944138 -0.13355263 0.1079011 0.2666617 -0.25439435 0.2534258 0.14387831
0.3265203 0.17698425 0.19318882 0.30285972 -0.260808 0.25801644 -0.19528493 0.20096464
-0.044496648 0.1854684 -0.28269312 0.06339415 0.17754993 0.17310762 -0.23381269 0.16231832
0.30032623 -0.12902121 0.15860705 -0.048133533 -0.16620915 0.06993823 -0.30133316 0.21529293
-0.07270408 -0.11889263 -0.26411515 -0.32720274 -0.29306763 0.1773113 -0.080206715 0.2943227
-0.2815399 0.04774034 0.31649822 -0.10059814 0.0338467 -0.18775766 0.21469128 -0.094423935
-0.16867217 0.16850977 -0.06102149 -0.22433397 -0.27021763 0.203075 0.045554783 0.035712015
0.32424843 0.26731032 0.078961015 0.18753527 0.25796336 -0.17310557 -0.11448383 -0.27075785
-0.14113025 -0.07659714 -0.0043492317 0.029565614 -0.26329774 -0.1489635 -0.033901256 0.14461966
0.12026682 -0.18298566 0.14287356 0.10182231 -0.14614822 0.22682531 -0.09487978 0.19394147
00000000: 3ec5 363e 0b1f 04bd 2bdd 573d 4661 8a3e
00000010: 4098 b93c 3b80 20be 8b75 0c3d ceac 92be
00000020: 0392 9cbe d64e c8bc f6c1 0c3e 28b1 8fbe
00000030: 1861 7abe c05e 383d db85 283e 4665 ec3d
00000040: abc3 cd3b 13f1 05be b8c7 a1be f80d 363e
00000050: 452a 413d c12c 8c3e de01 bebd 3b77 21be
00000060: f842 65be df80 cbbd 7cdf 1f3e d221 943e
00000070: 6198 aa3e 2b80 a13b db32 893e bd80 57be
00000080: 4adb 293e e883 803e 71b6 0b3c bc57 91bc
00000090: 0481 37bd 4c37 753d 7bc9 083e cd91 933e
000000a0: a072 7fbe 23e9 3bbc d53f 4fbe f7e5 0fbe
000000b0: 6050 5a3d 34c8 54be 946a 07be 93b4 82bd
000000c0: 5739 4dbe be8d 183e 3b3a 823e 5e43 9f3e
000000d0: 13f8 aa3e 3b9b 2c3d 6676 1d3e 597b 87be
000000e0: 4030 3fbe 1161 203e efa9 55be bba2 a03e
000000f0: 4293 a63e 7f9b 26be 4d13 fa3d 66e8 88be
00000100: 4cea cd3d 68bd 963e 05c2 08be 40fb dc3d
00000110: e287 883e fa3f 82be 07c1 813e d654 133e
00000120: ab2d a73e 5c3b 353e 4ad3 453e 6e10 9b3e
00000130: a088 85be bb1a 843e c6f8 47be adc9 4d3e
00000140: 1e42 36bd 6eeb 3d3e 27bd 90be cbd4 813d
00000150: a6cf 353e 2043 313e 986c 6fbe c636 263e
00000160: 5cc4 993e 231e 04be e369 223e ab27 45bd
00000170: bb32 2abe c63b 8f3d 5748 9abe c075 5c3e
00000180: e0e5 94bd fb7d f3bd 1a3a 87be 1e87 a7be
00000190: f60c 96be 1891 353e 6b43 a4bd 77b1 963e
000001a0: ff25 90be 608b 433d 0e0c a23e 6606 cebd
000001b0: d6a2 0a3d 8b43 40be 08d8 5b3e 5661 c1bd
000001c0: 66b8 2cbe d38d 2c3e abf1 79bd ceb7 65be
000001d0: f759 8abe e5f2 4f3e a797 3a3d c346 123d
000001e0: e403 a63e e6dc 883e 50b6 a13d 3f09 403e
000001f0: c613 843e 9642 31be 8076 eabd c6a0 8abe
00000200: 7384 10be f6de 9cbd 0084 8ebb 9633 f23c
00000210: f6ce 86be e389 18be 0bdc 0abd 2d17 143e
00000220: 734e f63d 9860 3bbe 724d 123e 3788 d03d
00000230: e1a7 15be e544 683e 5550 c2bd 9898 463e

0.bias f4 [16]
-0.3014633 0.16636309 0.0943479 0.08648237 0.33849773 0.109826155 -0.28722358 0.3293898
0.25747037 0.16129129 0.052681208 -0.11859461 -0.102041684 -0.21992894 -0.23799741 -0.09756133
00000000: 6659 9abe 165b 2a3e 7939 c13d ab1d b13d
00000010: 934f ad3e 89ec e03d f80e 93be c8a5 a83e
00000020: 28d3 833e 8b29 253e 40c8 573d bbe1 f2bd
00000030: 3bfb d0bd 0d35 61be 98b5 73be 3cce c7bd

2.weight f4 [8, 16]
-0.056515962 -0.10585067 -0.12001225 0.08545309 -0.06343585 -0.2358934 0.10412344 0.102594286
0.060643464 -0.23526984 0.008805156 -0.20251393 0.18010399 0.2062616 0.08119741 -0.15967476
0.2475605 0.1605297 -0.2218177 0.21038315 -0.044709712 -0.18115616 -0.22622791 0.001980573
0.09506792 -0.13541865 0.008765399 0.0073648393 -0.07316956 0.22130582 -0.025632173 -0.057967365
-0.18156737 -0.0026127994 0.0627115 -0.12862916 -0.12520888 0.22745714 -0.104407504 -0.20298423
0.043188527 0.023174226 0.057330757 0.24563837 -0.19878516 -0.045401417 0.0041766167 0.109539606
-0.074397415 -0.025281072 -0.15081012 0.05725187 0.21449572 0.017404139 -0.19260913 0.056646526
0.033147126 -0.026321173 -0.06576142 0.15423897 0.004305601 -0.0468041 0.16355097 -0.043566495
-0.09372586 0.10144043 -0.030710349 0.1526587 0.05861824 -0.13709822 0.2045181 -0.1873837
0.106845856 0.12330875 0.21821606 -0.13783044 0.18276867 -0.17673463 0.15304005 0.27061528
0.1855503 -0.19053325 0.20395783 -0.21648452 -0.11239525 0.09579725 0.14859179 -0.13574511
0.042499863 -0.007955521 0.14446688 -0.24186513 0.17146513 -0.12982789 -0.1853368 -0.123851344
0.19892615 0.18630275 0.13179478 -0.113004185 -0.012923924 -0.25646222 -0.050199382 -0.22141951
-0.09493406 -0.026873916 -0.01814887 -0.15139279 0.050824583 -0.22444312 -0.1259728 0.21195835
0.07945955 -0.18555859 0.15323451 0.19550364 -0.17979018 -0.050659895 -0.13246338 -0.20718572
0.14062186 0.19683388 0.1923647 -0.028094977 -0.009739071 0.22585522 0.031554163 -0.11571053
00000000: 487d 67bd 3cc8 d8bd fcc8 f5bd 0802 af3d
00000010: a8ea 81bd 0a8e 71be ac3e d53d f41c d23d
00000020: 4865 783d 94ea 70be 8043 103c d05f 4fbe
00000030: 2e6d 383e 3e36 533e d44a a63d c881 23be
00000040: 8080 7d3e e661 243e 2e24 63be ae6e 573e
00000050: 8821 37bd 0081 39be 4aa8 67be 80cc 013b
00000060: f8b2 c23d 30ab 0abe c09c 0f3c c054 f13b
00000070: ecd9 95bd fe9d 623e 90fa d1bc 306f 6dbd
00000080: ccec 39be 803b 2bbb e36e 803d 5db7 03be
00000090: c236 00be 86ea 683e 9ad3 d5bd 19db 4fbe
000000a0: 74e6 303d e0d7 bd3c a8d3 6a3d a088 7b3e
000000b0: 568e 4bbe d6f6 39bd 00dc 883b 4d56 e03d
000000c0: ac5d 98bd 401a cfbc f86d 1abe f080 6a3d
000000d0: c4a4 5b3e 2093 8e3c 543b 45be 3006 683d
000000e0: 48c5 073d 809f d7bc ecad 86bd d2f0 1d3e
000000f0: 0016 8d3b a8b5 3fbd e879 273e c872 32bd
00000100: 58f3 bfbd 00c0 cf3d 4594 fbbc 9052 1c3e
00000110: ae19 703d 7a63 0cbe 316d 513e 83e1 3fbe
00000120: 00d2 da3d 4c89 fc3d 0874 5f3e 6c23 0dbe
00000130: b627 3b3e ecf9 34be 88b6 1c3e 168e 8a3e
00000140: e600 3e3e 261b 43be 52da 503e 1eae 5dbe
00000150: 7b2f e6bd 5931 c43d 7228 183e c400 0bbe
00000160: 5614 2e3d e057 02bc 20ef 133e 7eab 77be
00000170: 8e94 2f3e 9af1 04be eec8 3dbe c6a5 fdbd
00000180: 4cb3 4b3e 26c6 3e3e 36f5 063e bd6e e7bd
00000190: debe 53bc 044f 83be de9d 4dbd ccbb 62be
000001a0: ca6c c2bd b026 dcbc f0ac 94bc b606 1bbe
000001b0: 702d 503d 6bd4 65be 04ff 00be 9c0b 593e
000001c0: b0bb a23d 1203 3ebe 82e9 1c3e 1b32 483e
000001d0: eb1a 38be c080 4fbd 7ba4 07be 7e28 54be
000001e0: 2dff 0f3e d28e 493e 40fb 443e 7027 e6bc
000001f0: a090 1fbc 9746 673e f03e 013d a4f9 ecbd

2.bias f4 [8]
0.19325697 0.11277324 -0.014179172 0.23787707 0.21553142 0.15885834 -0.10505066 -0.225855
00000000: 28e5 453e a8f5 e63d c24f 68bc 0c96 733e
00000010: 45b4 5c3e c3ab 223e cd24 d7bd 8846 67be

4.weight f4 [1, 8]
-0.030671569 -0.07194256 0.19052121 0.18888274 -0.14769423 0.024867805 0.19827816 -0.21157615
00000000: f142 fbbc 9f56 93bd fe17 433e 7a6a 413e
00000010: 283d 17be 91b7 cb3c 6e09 4b3e 6ba7 58be
