node-ps_model.pth (torch, 3399 bytes, 5 tensors)

0.weight f4 [16, 9]
0	0xbe0d7c20	-0.13816881
1	0xbe411e75	-0.18859275
2	0x3de3eee0	0.11129546
3	0x3e68f971	0.22751404
4	0x3dd89bfe	0.10576628
5	0x3e491763	0.19637828
6	0x3c90412e	0.017609205
7	0x3de0bd00	0.10973549
8	0xbdc3da02	-0.09563066
9	0x3dde9303	0.10867884
10	0x3e91e375	0.28493848
11	0xbe1eef1a	-0.15520898
12	0xbd6830dd	-0.056687225
13	0xbea0f555	-0.31437173
14	0xbe94e4cd	-0.2908081
15	0xbe9eac48	-0.30990815
16	0xbe3a1f3e	-0.1817598
17	0xbe943476	-0.28946275
18	0x3eafb576	0.3431813
19	0x3cba5bff	0.022748945
20	0xbd14e853	-0.036354374
21	0x3e15e249	0.14637102
22	0xbe99c0cd	-0.30029908
23	0x3d7e0961	0.062020663
24	0x3e9473b5	0.28994527
25	0xbe0ed8f5	-0.1394995
26	0x3d14cb0d	0.036326457
27	0xbe4d5a1b	-0.20053904
28	0xbdd34966	-0.10316734
29	0x3e19dffe	0.15026852
30	0xbce3ddd6	-0.02781574
31	0xbe1778ce	-0.14792177
32	0xbe9ef51a	-0.31046373
33	0xbe606da6	-0.21916828
34	0xbe96c85a	-0.2944973
35	0xbe5a487b	-0.21316712
36	0x3d8af024	0.067840844
37	0xbe98c5d9	-0.29838446
38	0x3e2d040e	0.16896078
39	0xbdc2c4b5	-0.09510175
40	0x3dd073ab	0.10178312
41	0xbd327e85	-0.04357769
42	0xbd2418db	-0.040062767
43	0x3e143665	0.14473875
44	0x3eb0f5ca	0.34562522
45	0xbe97f313	-0.29677638
46	0xbd1def96	-0.038558565
47	0x3e93e3fb	0.28884873
48	0xbe8e4bf0	-0.2779231
49	0x3e91febf	0.28514668
50	0x3e837fc7	0.25683424
51	0x3e5d59b3	0.21616249
52	0x3b977a56	0.004622738
53	0xbe85c27f	-0.2612495
54	0x3d5424a5	0.05179276
55	0xbeb04d54	-0.34433997
56	0xbde85086	-0.113434836
57	0x3e065f4b	0.13122289
58	0xbe6618ec	-0.22470444
59	0x3ea1fa38	0.31636214
60	0xbe7d33f1	-0.24726845
61	0xbeab8283	-0.3349801
62	0x3d93455e	0.07190965
63	0xbcf55f78	-0.02995275
64	0x3eaac878	0.3335607
65	0x3dbd154f	0.0923258
66	0xbdb76ed7	-0.08956688
67	0xbe242c97	-0.16032635
68	0x3c96f697	0.01842813
69	0xbb687ce4	-0.0035474831
70	0xbea98376	-0.3310811
71	0xbe12a694	-0.14321357
72	0xbe3717a6	-0.17880115
73	0x3e989bdf	0.2980642
74	0xbbc2306b	-0.005926182
75	0xbe604077	-0.21899591
76	0xbc320d2b	-0.010867397
77	0xbc317477	-0.01083099
78	0x3d1ca23d	0.03824066
79	0x3e7319fc	0.23740381
80	0xbe3d07b8	-0.18459976
81	0xbe921dcc	-0.28538358
82	0xbe41e900	-0.18936539
83	0xbd7b87a0	-0.06140864
84	0xbe1d7e93	-0.15380315
85	0x3da14b6b	0.07875713
86	0xbe8a38f4	-0.26996577
87	0xbe8c751c	-0.27433097
88	0xbdf406b6	-0.119153425
89	0xbe2d92c3	-0.16950516
90	0xbd263512	-0.040577956
91	0x3ea1af2f	0.31578967
92	0xbde3bd3c	-0.11120078
93	0xbd92b3a9	-0.07163174
94	0xbd7bf96c	-0.061517164
95	0xbdb11fc8	-0.0864864
96	0x3d0b3252	0.033983536
97	0xbe9c6ccb	-0.30551752
98	0x3e5818de	0.21103236
99	0xbdf43a5f	-0.11925196
100	0xbe39795c	-0.18112701
101	0x3d62248f	0.055210646
102	0xbe667a1f	-0.22507523
103	0xbe7dce7a	-0.24785796
104	0xbe7834d7	-0.24238907
105	0x3e4f8c8a	0.20268455
106	0x3d267ed8	0.04064831
107	0x3e859a91	0.26094487
108	0xbe9affce	-0.30273288
109	0x3e8f0d36	0.27939767
110	0x3e84411a	0.2583092
111	0x3e646d98	0.22307432
112	0x3e930356	0.28713483
113	0xbd354c4a	-0.044262208
114	0xbeab85df	-0.33500573
115	0x3de153ea	0.110023335
116	0x3cc34ea6	0.023841213
117	0xbe2c291e	-0.1681256
118	0xbe98f032	-0.29870754
119	0x3e9fcb7c	0.31209934
120	0xbd28b1a0	-0.04118502
121	0xbdb1e116	-0.0868551
122	0x3dbc7040	0.092010975
123	0x3e857097	0.26062462
124	0xbda09dfb	-0.078426324
125	0xbe775886	-0.24154863
126	0x3d1d1efb	0.038359623
127	0xbd7baac3	-0.061442148
128	0xbe0b45d9	-0.13600864
129	0x3e1254df	0.14290188
130	0x3d8f9aa4	0.07011917
131	0x3e8c1b94	0.2736479
132	0x3e2c3686	0.16817674
133	0x3cfb62fe	0.030686852
134	0x3ea6962b	0.32536444
135	0xbdaf3a07	-0.0855599
136	0x3ea3f947	0.3202612
137	0xbde4c25d	-0.11169884
138	0x3e4d667a	0.20058623
139	0xbd20973f	-0.03920674
140	0x3e0e58a2	0.13900998
141	0xbe318809	-0.1733705
142	0x3d7682b3	0.06018324
143	0x3d0f0d3e	0.034924738

0.bias f4 [16]
0	0xbdc0652f	-0.09394299
1	0xbe18da34	-0.14926988
2	0x3ad4aeb0	0.0016226377
3	0xbe86c4ef	-0.26322123
4	0xbe822b1d	-0.25423518
5	0xbe9a0c8b	-0.30087695
6	0xbe30ff9e	-0.1728501
7	0x3d8bb38c	0.06821355
8	0xbde99ab8	-0.114064634
9	0xb9433556	-0.00018616518
10	0xbe07c735	-0.13259585
11	0x3e053d93	0.1301177
12	0x3dbf8e37	0.09353297
13	0xbe011240	-0.12604618
14	0xbdc8b97f	-0.098010056
15	0x3ea680a1	0.3252001

2.weight f4 [8, 16]
0	0x3e67d427	0.22639523
1	0xbe1638f8	-0.1467017
2	0xbe47e473	-0.1952074
3	0xbe25085a	-0.16116467
4	0x3d6cd7be	0.057822935
5	0xbe1fa276	-0.15589318
6	0x3e5e9a1c	0.21738476
7	0xbe46eb61	-0.19425727
8	0xbc75f75c	-0.015012588
9	0x3d118c70	0.035534322
10	0x3e2e94ad	0.17048903
11	0xbe34b189	-0.1764585
12	0xbd5b03d5	-0.05347045
13	0x3e21a8fe	0.15787122
14	0x3e10ca75	0.14139731
15	0x3e156be0	0.14591932
16	0xbd72d8d0	-0.0592888
17	0xbdb94e4b	-0.09048136
18	0x3d6c1c3d	0.057644118
19	0xbe241330	-0.16022944
20	0x3cc28f40	0.023749948
21	0x3e31cbb4	0.17362863
22	0xbd7effe8	-0.06225577
23	0x3d8b8917	0.06813257
24	0x3e50650c	0.20351046
25	0x3da52614	0.080639035
26	0x3c0f6053	0.008750993
27	0x3cbdfe30	0.023192495
28	0x3e3fc424	0.18727165
29	0xbceaaa20	-0.028645575
30	0xbe26e715	-0.16299088
31	0xbe5068e3	-0.20352511
32	0x3e5edc8e	0.21763822
33	0xbe34f0a1	-0.17669918
34	0x3d693be0	0.056941867
35	0xbe17f6a2	-0.14840177
36	0x3d7f9736	0.062400065
37	0x3d37dac8	0.04488638
38	0xbddb7fb6	-0.10717718
39	0x3e1af95f	0.1513419
40	0x3d7c8ec0	0.061659575
41	0x3a9e4e00	0.0012077689
42	0x3e25aa2a	0.16178194
43	0x3e73c356	0.23804983
44	0x3ca80e1f	0.020514546
45	0xbe2e4ef8	-0.17022312
46	0xbe6aba44	-0.22922617
47	0xbe1c4167	-0.15259324
48	0x3e31e6e9	0.17373241
49	0xbe3b1c67	-0.18272553
50	0x3e58fc08	0.21189892
51	0xbe41a010	-0.18908715
52	0xbc89741b	-0.016778996
53	0xbe35c14a	-0.17749515
54	0xbe1472f1	-0.14496972
55	0x3defc6a8	0.117078125
56	0xbe29ba0b	-0.16574876
57	0x3d58b250	0.052904427
58	0x3c8d1260	0.017220676
59	0x3d53462d	0.051580597
60	0x3e616428	0.22010863
61	0x3d28d1e0	0.041215777
62	0xbd2db069	-0.042404566
63	0x3dd729bc	0.10506007
64	0xbd088cf5	-0.033337552
65	0xbd4eb086	-0.050461315
66	0x3e0f7e1a	0.14012948
67	0x3da69d14	0.08135429
68	0x3e592aec	0.2120778
69	0x3be4f4c0	0.0069871843
70	0xbb59710d	-0.0033178956
71	0xbb8fe666	-0.0043914793
72	0x3e5e9614	0.21736938
73	0x3c3ae4a0	0.0114070475
74	0x3e161711	0.14657237
75	0x3d814003	0.063110374
76	0xbe1b3c22	-0.15159658
77	0xbe24936e	-0.16071865
78	0x3e22c47b	0.15895264
79	0x3e03bbb3	0.1286457
80	0xbabade00	-0.0014256835
81	0x3e18c07a	0.14917174
82	0xbd369aeb	-0.044581335
83	0xbd0afc00	-0.033931732
84	0x3d85990d	0.06523333
85	0x3dd12b40	0.102133274
86	0x3d4cac0a	0.049968757
87	0xbe42e589	-0.19032873
88	0x3e63dd24	0.22252327
89	0xbd8da08c	-0.069153875
90	0x3e4273f0	0.18989539
91	0x3e682183	0.22669034
92	0xbe5baa12	-0.21451595
93	0x3dd9f4a0	0.10642362
94	0xbe4da68a	-0.20083061
95	0xbe448ffc	-0.1919555
96	0xbe4c6209	-0.19959272
97	0xbc592eb8	-0.0132557675
98	0x3daa4cd2	0.083154336
99	0xbe44c37a	-0.19215193
100	0xbe804758	-0.2505443
101	0x3e277bf4	0.16355878
102	0xbc24574f	-0.010030582
103	0x3e29f3c0	0.1659689
104	0x3e608063	0.21923976
105	0xbe06ec4e	-0.1317608
106	0x3e017886	0.12643632
107	0x3d2805c3	0.04102112
108	0x3e4b2f78	0.19842327
109	0x3d2f5680	0.042807102
110	0x3e3e4380	0.18580437
111	0x3e1caf6d	0.15301295
112	0x3e11accb	0.14226072
113	0x3e1dda90	0.15415406
114	0x3e818c14	0.25302184
115	0x3d6b38f0	0.057427347
116	0xbdef2fd9	-0.11679048
117	0xbe650224	-0.22364098
118	0x3e43b397	0.19111477
119	0xbe2a95c4	-0.16658694
120	0x3d1587c5	0.036506433
121	0x3d5c14d8	0.053730816
122	0x3e5158bb	0.20444004
123	0x3a29cb5c	0.0006477141
124	0x3da7a6a9	0.08186085
125	0x3dfdbb58	0.123892486
126	0x3dd991d5	0.106235184
127	0x3e1c773b	0.15279858

2.bias f4 [8]
0	0xbe6293e9	-0.22126736
1	0xbde2ce2b	-0.1107448
2	0x3e76abc6	0.24088964
3	0x3dccd434	0.10001412
4	0xbe19bc55	-0.15013249
5	0x3e1b0db0	0.1514194
6	0xbe82d0e3	-0.25549993
7	0xbc58e655	-0.013238509

4.weight f4 [1, 8]
0	0x3e1e9df0	0.15489936
1	0xbe5044bf	-0.20338725
2	0xbe20567a	-0.15657988
3	0xbebac76d	-0.36480275
4	0xbeb18091	-0.346684
5	0x3ea92653	0.33037052
6	0x3e5dba06	0.21652994
7	0xbd47254a	-0.048619546
