node-windows_model.pth (torch, 3439 bytes, 5 tensors)

0.weight f4 [16, 9]
00000000: e032 2c3d d0d5 c0bd 4b77 06be 1f3a 803e
00000010: f8fa 54be 7676 603d 966f df3d 064b 053e
00000020: 9beb c1bd 64a1 9cbe 8893 64be 56dd c4bc
00000030: 1026 663e 2bc6 d73d f631 683d 5605 9b3c
00000040: eb27 983e 2bd6 58bc 6754 933e e6ea a1bd
00000050: 434e 51be 6bef 13bd 50ff 973e c666 43be
00000060: d46c 8ebe 4338 693e 769a 943d dbf6 80be
00000070: eb79 5a3d fee5 28be 7fb3 9dbe b364 3c3e
00000080: f649 56bd 2e4f 93be e3fc 95be ab3e 7cbc
00000090: 1883 84be 6bc3 9f3e fab9 91be f2ca 8f3e
000000a0: 33cc 1a3e 36a3 6d3d fbd6 953e f6bb f3bd
000000b0: 70dd 81bd cff7 903e e29e 91be 9335 a03e
000000c0: 40d8 863e 2011 513d 506d 8c3d 405a 4b3e
000000d0: 684e 453e 3047 4b3e 9087 e1bd 905d 93be
000000e0: 6b8c ca3d 86f7 4c3e fb12 6d3e 66bd 98bd
000000f0: 96d5 1dbd 5691 263b 8ed2 54be 9e9b 6abe
00000100: 908d 92bd 327e 99be 2053 393d 769a 41be
00000110: cc94 a5be f698 0bbe 4bc7 2c3d b34b 51be
00000120: 432b 1dbe 680d 4d3e 3e37 67be 1325 0ebe
00000130: b6d3 a3bd 368d c73d 807e 00be 96c8 ad3c
00000140: 908f dbbd 2b34 a6bd 6e12 033e db6f 4c3e
00000150: abea 43bb 7603 51bd 2b17 92be 2692 203e
00000160: 7e04 22be c4b6 a2be a6e2 9d3d 50a6 0a3e
00000170: 4433 9cbe fb72 393e bb1a 5fbe f012 193e
00000180: 305e fd3d d333 42be 2a61 a13e 4087 803e
00000190: 40da dd3d bb2d 4a3e 2e87 4e3e a05b 7e3e
000001a0: 60a2 79be bb4d 8b3d 9383 183e 90a3 9c3d
000001b0: c049 8bbc 1644 51bd 63db 7cbe e105 edbc
000001c0: 8b4a 6b3e 9b6c 50be 6b4b 10bd 0063 a43c
000001d0: 1bc5 6c3d d612 043e 7690 af3d 4bf7 9bbe
000001e0: 1648 7ebe 0364 7abe ae5b 6f3e ee28 893e
000001f0: cbe2 56bd 0619 a7bd 16f4 47bd 66e1 bb3d
00000200: 4ed2 64be 5eb0 46be 3b09 603e e6e2 703e
00000210: 334e 6e3e 431b a03e 708a 143e 7cea 8a3e
00000220: 8210 a13e 007a 763b 10b3 a93d 9e67 00be
00000230: 6385 22be e38c 9f3e 4e46 873e b87f 0f3e
0.042040706 -0.094157815 -0.13131444 0.25044343 -0.20798862 0.054800473 0.10909955 0.130169
-0.09468766 -0.3059188 -0.22321904 -0.024031322 0.22475457 0.105358444 0.05668827 0.018923443
0.29717955 -0.013234655 0.2877533 -0.079061314 -0.2044001 -0.036117 0.29686975 -0.19082174
-0.27817404 0.22775368 0.072560236 -0.25188336 0.053338926 -0.16493985 -0.30801007 0.18397789
-0.05231663 -0.28771347 -0.292945 -0.015395801 -0.25881267 0.3120378 -0.284622 0.28084522
0.15116958 0.05801698 0.2926558 -0.11901085 -0.06341064 0.28314063 -0.2844153 0.31290874
0.2633686 0.051041722 0.06856787 0.19858646 0.19268191 0.19851375 -0.110121846 -0.2878232
0.09890064 0.20016298 0.23151772 -0.07458 -0.03853377 0.0025416217 -0.20783445 -0.22910926
-0.07155907 -0.29979092 0.04524529 -0.18906578 -0.32340086 -0.13632569 0.042182248 -0.20439033
-0.15348534 0.20024645 -0.22579667 -0.1388133 -0.07999365 0.09743731 -0.12548256 0.02121381
-0.10720742 -0.08115419 0.12799999 0.19964544 -0.0029894512 -0.05102869 -0.285333 0.15680751
-0.15822026 -0.31780064 0.077092454 0.13540006 -0.30507863 0.18110268 -0.2178754 0.1494863
0.123714805 -0.18965082 0.31519443 0.25103188 0.108326435 0.19744007 0.20168754 0.2483964
-0.24378347 0.06801935 0.14893942 0.076483846 -0.01700294 -0.051090322 -0.24693064 -0.028933467
0.22977655 -0.2035393 -0.035228174 0.020066738 0.057805162 0.1289781 0.085724756 -0.30462107
-0.24832186 -0.24452214 0.23374817 0.2678904 -0.05246238 -0.0815907 -0.048816763 0.09173851
-0.2234585 -0.19403216 0.21878521 0.23524055 0.23272018 0.312708 0.14505935 0.27132022
0.31457907 0.0037609339 0.082861066 -0.12539527 -0.15871195 0.31162176 0.26420826 0.14013565

0.bias f4 [16]
00000000: ffae a53e a69a 99be eb28 fabc d60c 853e
00000010: 4b67 7abd a3f2 623e aba8 b93b bbce 273e
00000020: 18d6 3c3e 78ed 7ebe 308f 063e cbea ebbd
00000030: 4b38 a63e 53e6 57be 6330 303e 968c af3c
0.32360074 -0.300008 -0.03053709 0.25986356 -0.061133664 0.22162871 0.0056658587 0.16387455
0.18441045 -0.24895275 0.13140559 -0.115193926 0.32464823 -0.21083955 0.17205958 0.021429341

2.weight f4 [8, 16]
00000000: d030 383e 9a64 57be b878 e4bd 3a70 62be
00000010: 6815 05bd 8eed 1cbe 18c7 e53d 76de 143e
00000020: a054 9d3c d00c c73d c064 ec3c 0026 babb
00000030: 3c45 f73d 084e 803d 9469 0fbe d05c c03d
00000040: fc8c 863d 8a51 713e da9d 60be d468 e0bd
00000050: 183d 29bd 74d8 093e 9c91 b23d 90b2 733e
00000060: 94c6 5dbe 28b8 49be 05ad c13c 0cc5 b73d
00000070: a07a 453e 32f7 2c3e 7077 34be e084 97bd
00000080: 2096 86bd 9804 f7bd 6abd 68be 0e02 2c3e
00000090: b075 61be d45b 9cbd 2cef 4d3e e68d 693e
000000a0: 3e30 083e 8e30 1a3e c07e 623c 1081 6cbe
000000b0: b8d5 6ebd f888 3d3e d63c 74be b863 babd
000000c0: f63b 2fbe c0c7 e03b 4835 d03d 9eb1 70be
000000d0: 30f4 c43d 7c35 a8bd 30a7 81bc 94b4 f7bd
000000e0: b073 c5bc ec0a 24be 5e29 64be a062 883d
000000f0: 5685 5b3e eab3 773e 4058 74be 24ff 3a3e
00000100: 986c 39bd 4050 c83d e8b9 293d 007e a7bb
00000110: e49c c13d 2e4d 6cbc a8c6 2e3e 2ce4 27be
00000120: d860 4ebd 6010 6d3e 34ed 043e c285 5e3d
00000130: 20c8 32bd 6e21 783e dcb7 6cbe def3 6f3e
00000140: 704d 43be 7cbd ecbd 9cf3 373e 7096 f6bd
00000150: 4833 e83d a825 0e3d 8829 1bbd 3284 3fbe
00000160: 7026 e73c 8002 ea3b f8aa 7a3e 8233 16be
00000170: 5043 8f3d 306b 443d fe5b 7fbe 5967 743d
00000180: ac8c be3d 7281 013e 00cf c93d 5829 6fbe
00000190: 1075 0dbd 20a6 733d 7c40 d13d 64f9 aabd
000001a0: 6cab f53d 6486 00be 3e6d 6f3e 6227 453e
000001b0: 3ed3 793e 80ee cfbd 0008 e03c 5878 56be
000001c0: 28e6 f0bd 4c7f bb3d 6601 683e 80ce 21bc
000001d0: ca4f 16be 50bc 8a3d 20e0 983d d83e 073d
000001e0: 0c42 86bd 78a0 113e 9657 21bb c08c f0bd
000001f0: 9ec5 3d3e 061a 6e3e 5efd df3c a8da edbd
0.1798737 -0.2103447 -0.11155838 -0.22113124 -0.032491118 -0.15324995 0.11219615 0.14537987
0.019205391 0.09719241 0.028856635 -0.0056807995 0.12073752 0.06264883 -0.14005119 0.093927026
0.065698594 0.23566261 -0.21935216 -0.109574944 -0.04131803 0.13461477 0.08719179 0.23798585
-0.21657783 -0.19699156 0.023642072 0.089731306 0.19285059 0.16891173 -0.17623687 -0.07398391
-0.06571603 -0.12061423 -0.22728506 0.16797659 -0.2201755 -0.07634702 0.20110768 0.22808036
0.13299653 0.15057585 0.013824165 -0.23096108 -0.058309287 0.1850928 -0.23851332 -0.09101051
-0.17112717 0.0068597496 0.101664126 -0.23505256 0.096168876 -0.08213326 -0.015826792 -0.120949894
-0.024103016 -0.16019791 -0.22281405 0.06659436 0.21437582 0.24189726 -0.2386179 0.18261391
-0.04526958 0.097809315 0.04143706 -0.005111456 0.09453753 -0.014422698 0.17067969 -0.16395634
-0.050385326 0.23150778 0.12981111 0.05432678 -0.043647885 0.24231502 -0.23117012 0.23432872
-0.19072509 -0.11559579 0.17964023 -0.120404124 0.11337906 0.03470388 -0.037881404 -0.18702772
0.02821657 0.0071414113 0.24479282 -0.14668086 0.06995261 0.047953784 -0.24937436 0.059668873
0.09304175 0.12647036 0.09853935 -0.23355615 -0.034535468 0.0594846 0.102173775 -0.08348349
0.11995587 -0.12551266 0.23381516 0.19253305 0.24396989 -0.10152912 0.027347565 -0.20944345
-0.11762649 0.09155139 0.22656783 -0.009875894 -0.14678875 0.06774199 0.074646235 0.033018917
-0.06555566 0.1422137 -0.0024618856 -0.11745596 0.18532416 0.23252115 0.027342495 -0.11613971

2.bias f4 [8]
00000000: 9c2d 80bd 7039 2cbe c887 7b3d 38ae 5cbd
00000010: c0a6 cb3d c25b 0cbe d6a5 603e 54e7 a73d
-0.06258699 -0.16818786 0.061408788 -0.053877085 0.099439144 -0.13706878 0.21938261 0.08198419

4.weight f4 [1, 8]
00000000: 2155 9fbe dc31 6cbe 8264 0d3e 415c 8d3e
00000010: efd1 a1be 3d34 a7be 6fa2 62bd 9745 8dbe
-0.31119636 -0.23065895 0.13807872 0.27609447 -0.3160548 -0.32657042 -0.05533069 -0.27592155
