node-oojs_model.pth (torch, 3415 bytes, 5 tensors)

0.weight f4 [16, 9]
00000000: a3ca 69be 3c2e 9f3d e18b a3be c951 9dbe
00000010: 1319 6f3e a356 27be 4454 153e 13ef 84be
00000020: c001 5c3c ea92 3d3d 814f e53c 8728 043e
00000030: e3b4 9f3d bb06 a4bd 3093 16be 2999 1cbe
00000040: 59f3 813e 39f0 7bbd d53d 82be d813 123c
00000050: ba35 773e 4d3f d2bd faf9 7bbe 90d6 acbd
00000060: 22c7 5a3d d3fd 903e fc13 713d 61a0 78be
00000070: 9796 653e 866b 01be 678b 0dbc 9991 0ebe
00000080: ab63 113e c2e4 833e e8e4 a6bd 2cfb 7a3e
00000090: 353e a7be e7b9 d93d 95b6 983e ccfa 273d
000000a0: 07a1 4a3e 94ac 913e bdb1 6b3e eb7c bf3b
000000b0: a8eb 7ebc 7ee3 0b3e dbbc 063d 33bd a8be
000000c0: cee0 9e3e cc85 9abe 8107 a6be 3308 f0bd
000000d0: 1bdc 54be 5265 703d 2814 a33e bcf4 9e3e
000000e0: 6f8a 8a3d 2a01 343a a884 31bd 956d 62bb
000000f0: 52ff d5bd 8325 213e feb5 a73e 4895 913e
00000100: 93bc 413d 9699 063e 1e34 45be f828 ab3e
00000110: 45de 3bbe 18d7 b33e 59ec 50be 5d79 4c3e
00000120: c905 6cbd cb9f 3ebe 2f3c 223c 9c0e 943e
00000130: 4926 2f3e 5d94 e03d 0955 bb3d 0455 913e
00000140: d6c7 f6bd 61cd af3e 60a5 ae3e 6fa6 a03e
00000150: 1b74 923e 4b79 5abe 04a1 dabd b7a1 9abe
00000160: e796 05be b7c5 013e 3bb1 833e a10e afbd
00000170: c9d1 a23e d0db ea3c 75ad 553e 57bd b63e
00000180: 18c9 1e3e 3cd4 b6bb 2ba4 5f3d 3986 a73e
00000190: 2d36 09be 6bda a1be 9f0c 4dbe 163e a6be
000001a0: 26e4 17be b1d9 34be bf25 dabb 1b62 f1bd
000001b0: 6a5e cebd fb67 91be d697 3a3e 2dae 53be
000001c0: 91e6 a6be e44e 58be b404 823e ea28 763e
000001d0: d0d0 aa3e 48bd adbd 7d1a b43d 8959 9c3e
000001e0: 8c08 9e3e 9490 38be 9214 cfbb 100e 533e
000001f0: 2933 edbd 20e3 94be 9b6d 953e c340 94be
00000200: 803b 4fbd 14c6 9abe 2bbc 2c3d d035 b0bd
00000210: 9b89 8a3d 3cff a9be 3b09 15be 6e83 b0be
00000220: 865d 62be 12ee 87be a742 a9be 0f42 95be
00000230: c5e8 523e 0b83 79be caab 8d3d 4a10 b23d
-0.22831206 0.077724904 -0.31942657 -0.3072646 0.23349409 -0.16341643 0.14582926 -0.2596365
0.013428152 0.046282686 0.027992012 0.12906085 0.07798173 -0.08009096 -0.14704585 -0.15292801
0.25380972 -0.06150839 -0.254378 0.008915864 0.24141589 -0.1026598 -0.24607077 -0.08439362
0.053412564 0.28318653 0.05885695 -0.2427993 0.22420727 -0.12638673 -0.008639193 -0.13922729
0.14198177 0.25760466 -0.08149129 0.24509877 -0.32664648 0.10631161 0.298268 0.041010663
0.1978799 0.2845198 0.2301702 0.005843749 -0.0155591145 0.13661 0.03289495 -0.32956848
0.31030887 -0.30180204 -0.324276 -0.11720314 -0.20787089 0.058690377 0.31851315 0.31046093
0.06764685 0.00068666285 -0.0433394 -0.003455018 -0.10449089 0.15736966 0.32756037 0.28434205
0.04729898 0.13144526 -0.19258162 0.33429694 -0.18346508 0.3512504 -0.2040266 0.19968171
-0.057622705 -0.18615644 0.009902044 0.28917396 0.17104448 0.10965798 0.091470785 0.28385174
-0.120498344 0.3433638 0.34110546 0.3137698 0.28604206 -0.21335332 -0.106752425 -0.30201504
-0.13045846 0.12673078 0.25721154 -0.08547712 0.31800678 0.028669268 0.2086695 0.3569133
0.15506399 -0.0055794995 0.054599922 0.3271959 -0.13399573 -0.31611952 -0.20024346 -0.32469243
-0.14833125 -0.17661168 -0.0066573317 -0.1178629 -0.10076602 -0.28399643 0.18221983 -0.20671912
-0.32597783 -0.21123844 0.25394213 0.24039045 0.33362436 -0.08483368 0.08794115 0.3053706
0.30865896 -0.18023902 -0.006319591 0.20610833 -0.11582024 -0.29079533 0.29185185 -0.2895566
-0.050593853 -0.30229247 0.04217164 -0.08604014 0.067645274 -0.3320254 -0.14554302 -0.34475273
-0.22105989 -0.2654882 -0.33058664 -0.2915196 0.20596607 -0.24366395 0.06917532 0.08694513

0.bias f4 [16]
00000000: fab6 783e 384f 183e b2e3 cbbd 5c72 953e
00000010: 26a5 853c 8340 8abd 2177 d43c 3d96 b33e
00000020: 36e3 1dbe b29c 20be ebde 74be 90ed a93e
00000030: 57ae 8bbe 4993 863e 40fb 113e d3c3 8dbe
0.2428855 0.1487397 -0.09955539 0.29188812 0.0163141 -0.06750586 0.025935711 0.3507556
-0.15418705 -0.15684775 -0.23913161 0.33189058 -0.27281448 0.26284245 0.14256 -0.27688465

2.weight f4 [8, 16]
00000000: 758a 44be 21e9 1dbe 6409 d0bd a5db 2ebe
00000010: 0966 32bc 5cd1 4fbe bbcb 443e 96e2 1ebc
00000020: 64e3 0b3e 8586 103e 0eaf 2c3e fe26 febd
00000030: d503 443e 7b10 463c c80e 28bd 45d1 acbd
00000040: 9c6d 21be 912b ddbd 035a 0c3e e6bb 883d
00000050: 711f eabd b5d8 343e 904f ce3d 4de5 063e
00000060: a615 e03d a38d a63d bf27 1a3e 49aa 273e
00000070: ad6a 50bd 8247 a2bd 7079 edbd 38b7 18be
00000080: 2031 cabc 0c12 ae3d 4c10 a53d b043 cdbc
00000090: 8e6a 51be 7454 67be 200c 20bc f840 7ebd
000000a0: c0ac a0bb 7072 cdbd b09f 573d 2420 833d
000000b0: d0b2 4dbe c0a4 6b3e 548f a4bd c0a7 423d
000000c0: 8359 493d 7aa2 a03d 88d8 6e3e 8df7 2fbd
000000d0: 14e7 643e 6a40 d9bd 763d 363e 07bd 513d
000000e0: 4de1 203e 6dcb 423d c191 02bc 6f94 18be
000000f0: 4a92 7c3d 0549 2cbe 0000 01ba dbd1 c6bd
00000100: cb74 26bd 6d96 e6bd 2ac7 39be 1e08 86bc
00000110: 4751 e0bd bdef dcbc 5487 933d 01ae 603d
00000120: 7f1f c1bd b98e 333d 54b4 573e 1341 6f3a
00000130: 70b7 72be fca4 863e b08e 77bd cee5 0ebe
00000140: 217f f3bd 7f42 c23d a604 5ebd c120 693e
00000150: c8ce ac3d a026 66bd 1936 b9bd 6877 58be
00000160: b3f7 39be b572 babd 3d78 6bbe 603f 133c
00000170: 0069 4fbb 6aec 653e 66d3 27be 6ce3 e2bd
00000180: 5ed1 fdbd 0973 523e 350b 8cbd f830 663e
00000190: 8e82 983b e6ad 833d eb16 1abe b6de ee3d
000001a0: 228e 0dbb 664e 00bd 6d7f 0bbe 34d6 07be
000001b0: 1530 133d ea37 433e 502d 93bd 4fc8 ba3d
000001c0: f05d 253e 2ce2 093e 222c eebd 4cce 343e
000001d0: addf c23c c478 a5bd 949e 29be a24e 8bbd
000001e0: f1de 29bc 412e d43d c2e9 d43d 62b1 703e
000001f0: 1d09 03be ed3a aabd a4e0 b4bd 0609 3dbe
-0.19193442 -0.15420963 -0.10158041 -0.17075975 -0.010888585 -0.20294708 0.19218342 -0.009697577
0.13660961 0.14113815 0.16863653 -0.12409781 0.19142087 0.01208889 -0.04102972 -0.084383525
-0.15764469 -0.10799325 0.13706212 0.06676464 -0.11431778 0.17660792 0.10073769 0.13173409
0.10941629 0.08132484 0.15054224 0.16373552 -0.050882984 -0.07923795 -0.11595428 -0.14913642
-0.024681628 0.08499536 0.08059749 -0.02505669 -0.20450804 -0.2259081 -0.009768516 -0.062073678
-0.004903406 -0.10031593 0.052642524 0.06402615 -0.20087743 0.23012066 -0.0803515 0.04752326
0.04915763 0.0784349 0.23324788 -0.042960692 0.22353774 -0.10607989 0.17796883 0.05120566
0.15710945 0.047557283 -0.007969321 -0.14900373 0.06166295 -0.1682473 -0.00049209595 -0.097079955
-0.040638726 -0.1125916 -0.18142381 -0.016361292 -0.109530024 -0.026969785 0.07203546 0.054853443
-0.094298355 0.043837283 0.21064883 0.0009126823 -0.23702788 0.26297748 -0.06043881 -0.13954851
-0.11889482 0.094853394 -0.05420365 0.22766401 0.08437878 -0.05618918 -0.090435214 -0.211393
-0.18160896 -0.0910391 -0.22995086 0.008987278 -0.0031648278 0.22453466 -0.16389236 -0.110785335
-0.12393449 0.20551695 -0.06838075 0.22479618 0.004654235 0.06429653 -0.15047805 0.116635725
-0.002159961 -0.031324767 -0.13622828 -0.13265306 0.035934526 0.19064298 -0.07186377 0.09120237
0.16149116 0.13465184 -0.116295114 0.17656821 0.023788298 -0.08079675 -0.16564399 -0.068021074
-0.010368095 0.10360385 0.10396148 0.23505166 -0.12796445 -0.083120205 -0.08831909 -0.18460473

2.bias f4 [8]
00000000: 885b 863e 6b14 783d fc85 573e df65 043d
00000010: 09d7 633e 7399 673d 1dac d73d 5530 4bbb
0.26241708 0.060566347 0.21047205 0.032323714 0.22249998 0.056542825 0.10530875 -0.003100415

4.weight f4 [1, 8]
00000000: f8cb 35be 04e6 75bd 30fe a2be e65c df3d
00000010: 3051 90be ebab 713d 7d8a 1abe ff7f 8d3d
-0.17753589 -0.060033813 -0.31834555 0.10906391 -0.2818694 0.059001844 -0.15091892 0.06909179
