node-latex-pdf_model.pth (torch, 3455 bytes, 5 tensors)

0.weight f4 [16, 9]
0	0xbca725b2	-0.020403717
1	0x3c14656e	0.009057386
2	0x3e7ba7a7	0.24575673
3	0xbd3afe16	-0.04565247
4	0x3e066625	0.13124903
5	0xbe01619d	-0.12634893
6	0x3e909032	0.28235012
7	0x3d4575f0	0.048208177
8	0x3deee5de	0.116649374
9	0x3c88b215	0.016686479
10	0xbd641544	-0.055684343
11	0x3e1941eb	0.14966552
12	0x3e9590f6	0.2921216
13	0x3e11ad24	0.14226204
14	0xbe291159	-0.16510524
15	0xbe686fac	-0.2269885
16	0xbe9582e9	-0.2920144
17	0xbe708d09	-0.234913
18	0x3ea0123a	0.31263906
19	0x3e647bee	0.223129
20	0x3e91d11a	0.28479844
21	0x3e47e4b5	0.19520839
22	0xbd943533	-0.072367094
23	0x3e9dcb9d	0.30819407
24	0xbeafa549	-0.3430579
25	0x3e07f71e	0.13277861
26	0xbe8de95d	-0.27717105
27	0x3e693f4b	0.2277805
28	0xbca4bb88	-0.020108953
29	0xbe38f38e	-0.18061659
30	0xbdfe40a7	-0.12414675
31	0xbdf7e29b	-0.121037684
32	0x3c7f3909	0.015577563
33	0x3e8c6688	0.27421975
34	0xbded7069	-0.11593706
35	0x3ea24de0	0.3170004
36	0x3e0486f7	0.1294211
37	0x3d8cf590	0.06882775
38	0xbe1784e1	-0.14796783
39	0xbd53cfde	-0.05171191
40	0x3e3814cd	0.17976685
41	0x3e3bc4b7	0.1833676
42	0x3d3b7972	0.045770116
43	0xbd106a41	-0.03525758
44	0xbda06180	-0.07831097
45	0xbe556c50	-0.20842099
46	0xbe3d777e	-0.18502614
47	0xbe8b4422	-0.2720042
48	0x3db1b4c6	0.08677058
49	0x3e0f73a6	0.1400896
50	0x3e934678	0.287647
51	0x3e2984de	0.16554591
52	0xbdec96b6	-0.11552183
53	0xbe914db3	-0.28379592
54	0xbdfe13e8	-0.124061406
55	0x3d3f7e41	0.046751264
56	0xbd696abc	-0.056986555
57	0xbc0f611c	-0.00875118
58	0x3e9e67de	0.3093862
59	0xbe9f7a80	-0.31148148
60	0x3dd13819	0.10215778
61	0x3d2d10f8	0.04225251
62	0xbdf45cee	-0.119317874
63	0xbe3c8f2c	-0.1841399
64	0x3db3fffa	0.08789058
65	0x3e03af0e	0.12859747
66	0xbe944bbb	-0.28964028
67	0x3d2032ed	0.039111067
68	0x3e12ceb3	0.14336662
69	0x3e013d93	0.12621145
70	0x3e87e4d7	0.26541778
71	0x3e04b176	0.12958321
72	0xbe804b76	-0.25057572
73	0x3c9ba5c4	0.018999942
74	0xbe0aa8da	-0.13540974
75	0xbe658d64	-0.22417217
76	0x3dc523a1	0.09625936
77	0xbe3e42e4	-0.18580204
78	0x3e22078d	0.15823193
79	0xbd973357	-0.07382839
80	0x3e8e7e37	0.2783067
81	0xbd853f7b	-0.065062486
82	0xbe9fdbca	-0.31222373
83	0x3e70ccde	0.2351565
84	0xbd8ee3d6	-0.0697705
85	0xbddce800	-0.10786438
86	0xbd104a16	-0.035226904
87	0x3e155cb3	0.14586143
88	0x3ddf031b	0.10889264
89	0xbe3b0a18	-0.18265569
90	0x3ea9a174	0.3313099
91	0xbe493731	-0.1964996
92	0xbe83a5e9	-0.25712517
93	0xbbee18a6	-0.007266122
94	0xbd708763	-0.058722865
95	0x3db1d512	0.08683218
96	0x3e8fc953	0.28083286
97	0x3eb0560e	0.34440655
98	0xbe7115bc	-0.23543447
99	0x3eb38d07	0.35068533
100	0x3eb3ba11	0.35102895
101	0xbd8ced5e	-0.06881212
102	0x3def62ee	0.11688791
103	0x3e80dfc0	0.25170708
104	0x3eaaa127	0.33326074
105	0x3d6738c3	0.056450617
106	0x3e947973	0.28998908
107	0x3e6c8b74	0.23100072
108	0xbe235cd4	-0.1595338
109	0x3ea463c3	0.32107362
110	0xbdee15f7	-0.11625283
111	0xbe5d09e1	-0.215858
112	0x3d155f7b	0.03646801
113	0x3d1a3601	0.03764916
114	0xbd0fd18e	-0.035111956
115	0x3e4a147c	0.19734377
116	0xbe0f429f	-0.13990258
117	0x3ea31be4	0.31857216
118	0xbd615a12	-0.05501754
119	0x3e9de3a0	0.30837727
120	0x3cb13600	0.021632195
121	0x3e716272	0.2357271
122	0x3e66921f	0.22516678
123	0xbd1456ec	-0.036215708
124	0xbe1db394	-0.15400535
125	0xbe6d595c	-0.23178619
126	0xbdcdbd44	-0.10045865
127	0x3e87e405	0.26541153
128	0xbd6c76ed	-0.057730604
129	0x3d029247	0.031877782
130	0xbe785d72	-0.24254397
131	0x3eb9f683	0.36320886
132	0xbd73d937	-0.059533324
133	0x3e4ac363	0.19801097
134	0x3e852934	0.26007998
135	0x3d9412f0	0.072301745
136	0x3eb21cfe	0.34787744
137	0x3e9aab2b	0.30208716
138	0xbe0c422a	-0.13697115
139	0x3e736ab7	0.23771177
140	0xbe2c4ee4	-0.1682697
141	0x3e7b7bf9	0.2455901
142	0xbe611204	-0.21979529
143	0xbe22397a	-0.15842238

0.bias f4 [16]
0	0xbc208c69	-0.009799101
1	0xbe71a384	-0.23597533
2	0x3e6c5aa9	0.23081459
3	0x3ea09dac	0.31370294
4	0x3d2fc62e	0.04291361
5	0x3ea743eb	0.32669005
6	0x3c20aee2	0.00980732
7	0x3d1c8883	0.038216125
8	0xbdc777f7	-0.09739678
9	0x3d9f35c6	0.07773928
10	0x3eae89fc	0.3408965
11	0x3eaaac1d	0.33334437
12	0x3db43076	0.08798306
13	0x3e5a86cf	0.21340488
14	0xbdc0097f	-0.09376811
15	0x3e1a440f	0.15065025

2.weight f4 [8, 16]
0	0x3e1b7ff2	0.15185526
1	0x3ce2765b	0.027644327
2	0x3d922a2b	0.07136949
3	0x3e07587d	0.1321735
4	0xbba9daec	-0.005183568
5	0x3e75ccac	0.24003857
6	0x3e60a887	0.21939288
7	0xbdb769d6	-0.089557335
8	0xbe1cad90	-0.15300584
9	0x3d559b18	0.052149862
10	0x3d6286f3	0.05530448
11	0x3dc4f760	0.096174955
12	0x3e1bd449	0.15217699
13	0xbe1c68eb	-0.15274398
14	0xbcd9a5b9	-0.02656828
15	0x3e38e5dd	0.18056436
16	0xbcd608af	-0.026127188
17	0x3e330e81	0.17486002
18	0x3e5b79a9	0.21433128
19	0xbe23d69b	-0.15999834
20	0xbe1893d9	-0.1490015
21	0xbe074bea	-0.13212553
22	0xbd323c57	-0.043514576
23	0xbd57f0ba	-0.05271981
24	0x3de0c326	0.109747216
25	0xbcb4ddf0	-0.022078484
26	0xbdc3cb63	-0.09560277
27	0xbbdcb129	-0.0067349863
28	0xbd8b1ae7	-0.067922406
29	0xbd6bbb29	-0.057551537
30	0x3d863f25	0.065550126
31	0x3d56e56b	0.052464884
32	0xbd88582d	-0.06657443
33	0x3d442e88	0.04789594
34	0xbe27a086	-0.16369829
35	0x3e4bfc23	0.19920401
36	0x3e617fe5	0.22021444
37	0xbda995e4	-0.082805425
38	0xbc9530ef	-0.01821181
39	0xbca58cf1	-0.020208808
40	0xbe71fd6e	-0.23631832
41	0x3e4023a2	0.18763593
42	0x3e472d0e	0.19450781
43	0xbe5cbf19	-0.21557273
44	0x3e7ee6c7	0.24892722
45	0x3db468b6	0.088090345
46	0x3dccb379	0.09995169
47	0x3dc57b5b	0.09642669
48	0x3e5b2d90	0.214041
49	0x3b103d32	0.0022009131
50	0x3dd7b7b0	0.105330825
51	0x3e7229da	0.23648778
52	0x3dd6e98f	0.104937665
53	0x3d68b778	0.056815594
54	0xbd70ee36	-0.058820926
55	0xbc9eb5f6	-0.019373875
56	0x3e797824	0.24362236
57	0x3c837c60	0.016050518
58	0x3d7527a8	0.059852272
59	0x3e252fd2	0.16131523
60	0x3e6f9d49	0.23399843
61	0xbe0b7e81	-0.13622476
62	0x3e2d24a8	0.16908514
63	0x3e0eb947	0.13937865
64	0xbe7eca3c	-0.24881834
65	0xbe4cfccf	-0.20018314
66	0x3d9e48fd	0.07728765
67	0x3d575408	0.052570373
68	0xbdbfc07b	-0.093628846
69	0x3e318c1a	0.17338601
70	0x3e4ce64a	0.20009723
71	0xbdcfe251	-0.10150588
72	0xbdd61197	-0.10452574
73	0x3e79af3c	0.24383253
74	0xbe819eea	-0.25316554
75	0x3d98c7fe	0.074600205
76	0xbe87ecc1	-0.26547816
77	0xbe487f49	-0.19579805
78	0x3ca811d2	0.02051631
79	0xbd2a5e92	-0.041594096
80	0x3e116d58	0.14201868
81	0x3e59330e	0.21210882
82	0x3e593ec3	0.21215348
83	0x3db6eb15	0.08931557
84	0x3e779c35	0.24180682
85	0x3d669200	0.05629158
86	0xbcb5ca87	-0.0221913
87	0x3c46e857	0.012140355
88	0x3da5da13	0.08098235
89	0x3de7d164	0.11319235
90	0x3e1b33fc	0.15156549
91	0xbd409fde	-0.04702746
92	0xbe23557a	-0.15950575
93	0x3d55b969	0.052178774
94	0x3cdd6b5a	0.027028728
95	0xbdbbb18a	-0.09164722
96	0x3d9a7107	0.075410895
97	0xbe1348d0	-0.14383245
98	0xbc288ac0	-0.010286987
99	0x3df0079e	0.11720203
100	0x3e4f12b0	0.20221972
101	0x3dea4618	0.114391506
102	0x3d3e6222	0.046480305
103	0x3d3084b7	0.043095317
104	0x3e59a344	0.21253687
105	0x3e1e66d0	0.15468907
106	0xbd6959c0	-0.056970358
107	0xbe38da1b	-0.1805195
108	0x3dc05a90	0.093922734
109	0xbb236080	-0.0024929345
110	0xbd874eef	-0.06606852
111	0x3d141c85	0.03616001
112	0x3cd49f83	0.025954967
113	0x3dba2cd9	0.09090585
114	0xbe4eb61c	-0.20186657
115	0xbe2974e7	-0.16548501
116	0xbdaa5549	-0.08317048
117	0xbe60939c	-0.21931309
118	0xbc8ca42d	-0.017168129
119	0xbdfa6fdc	-0.12228367
120	0xbca276c6	-0.019832026
121	0xbe2d484e	-0.16922113
122	0xbd2198c7	-0.03945234
123	0x3e849f6d	0.25902882
124	0x3e47bcc9	0.1950561
125	0x3e0dfde5	0.13866384
126	0xbca4a516	-0.02009825
127	0x3e11fb8a	0.14256111

2.bias f4 [8]
0	0xbdaa9259	-0.08328695
1	0xbe297f5e	-0.16552493
2	0xbdf9916b	-0.121859394
3	0xbe4c5a0a	-0.19956222
4	0x3d20ade5	0.03922834
5	0xbd5bcc2c	-0.05366151
6	0x3e300293	0.17188482
7	0x3e16f14a	0.14740482

4.weight f4 [1, 8]
0	0xbd08e56f	-0.03342193
1	0x3b0bc81e	0.0021328996
2	0x3e146c0b	0.1449434
3	0xbe11a41a	-0.14222756
4	0x3e7eb45b	0.24873488
5	0xbe4d22bc	-0.20032781
6	0x3e84feeb	0.25975737
7	0xbe694ac9	-0.22782435
