node-serialize_model.pth (torch, 3455 bytes, 5 tensors)

0.weight f4 [16, 9]
0	0x3e771a10	0.24131036
1	0x3ea8dc6a	0.32980663
2	0x3e6e193f	0.23251818
3	0xbe9009b8	-0.28132415
4	0xbe817c19	-0.25289991
5	0x3e87eff3	0.26550254
6	0x3d227253	0.03965981
7	0x3d904b7e	0.07045649
8	0x3e53d44f	0.20686458
9	0xbe083f83	-0.13305478
10	0xbeaa97a7	-0.33318827
11	0x3e3c1ab8	0.18369567
12	0x3de2cf20	0.11074662
13	0xbe088b80	-0.13334465
14	0x3d310fc0	0.04322791
15	0xbcb4bad6	-0.022061747
16	0x3c9a1a40	0.018811345
17	0xbe082ee8	-0.13299143
18	0x3d562440	0.052280664
19	0xbde67690	-0.11253083
20	0xbdf32b26	-0.11873464
21	0x3e27ab06	0.16373834
22	0xbd46956b	-0.04848234
23	0x3cdc64c0	0.02690351
24	0x3dc3326b	0.09531101
25	0xbdd51470	-0.10404289
26	0xbe51d4e8	-0.20491374
27	0xbe8c6d9d	-0.27427378
28	0xbe9cf9c3	-0.30659303
29	0xbe7bc88e	-0.24588224
30	0x3e7cbeec	0.24682206
31	0xbb37aaca	-0.0028025382
32	0xbd80053c	-0.062509984
33	0x3da8d10b	0.08242997
34	0x3e929ecf	0.28636786
35	0x3c74b9ca	0.014936874
36	0xbda6f4e6	-0.081521794
37	0xbe8da04c	-0.2766136
38	0x3ea65bbb	0.3249186
39	0x3da83fd6	0.08215301
40	0xbe8961eb	-0.26832518
41	0xbe8c6974	-0.27424204
42	0x3db4c390	0.08826363
43	0x3e85396f	0.2602038
44	0xbea8914c	-0.32923353
45	0xbe4fc8a3	-0.2029138
46	0x3e7a8904	0.2446633
47	0xbd50c575	-0.05096956
48	0xbe841e43	-0.25804338
49	0x3d2d15c0	0.04225707
50	0x3e76bca7	0.24095403
51	0xbe1d88f6	-0.15384278
52	0x3e3575ab	0.17720668
53	0x3e0ee34e	0.13953897
54	0xbeaec76f	-0.3413653
55	0xbe9a52a0	-0.30141163
56	0x3d50b04a	0.050949372
57	0x3e38976c	0.18026513
58	0xbdd77fc5	-0.10522417
59	0xbda88d52	-0.0823008
60	0x3e824aec	0.25447786
61	0x3e89db04	0.26924908
62	0xbd7540f9	-0.059876416
63	0xbe5ce8b4	-0.21573144
64	0xbe8ff2e4	-0.28114998
65	0xbdf64513	-0.120248936
66	0x3c50ddb1	0.012748168
67	0x3e574ee3	0.21026187
68	0x3de7f356	0.113257095
69	0xbd6a81c1	-0.05725265
70	0xbc2f0480	-0.010682225
71	0xbda855d5	-0.08219496
72	0xbd069909	-0.03286079
73	0x3da3a063	0.07989576
74	0xbda660e8	-0.08123952
75	0xbd4dc73c	-0.050238833
76	0x3e331c51	0.1749127
77	0x3e598ebb	0.21245854
78	0x3e953f44	0.2914983
79	0xbe2a8494	-0.16652137
80	0xbe899bd1	-0.2687669
81	0x3cc65ffa	0.024215687
82	0x3d7e8cb7	0.062145915
83	0xbde0e0b4	-0.10980359
84	0x3d53aacf	0.051676568
85	0x3eabe074	0.33569682
86	0xbe0f4c92	-0.13994053
87	0xbe290384	-0.16505247
88	0xbe2e7526	-0.17036876
89	0xbe17ecd5	-0.14836438
90	0xbeb26ae5	-0.3484718
91	0x3e325544	0.17415339
92	0xbb67a7b3	-0.003534776
93	0x3c5aaf73	0.013347494
94	0x3e2a504b	0.16632192
95	0x3e94abbc	0.29037273
96	0x3de1c240	0.11023378
97	0x3dbd7328	0.0925048
98	0x3d338568	0.043828398
99	0x3e162d7f	0.14665793
100	0x3eb10ff7	0.34582493
101	0x3cd63a6e	0.026150908
102	0x3e98d056	0.29846448
103	0x3ebd7e82	0.3701058
104	0x3e1b7f93	0.15185384
105	0xbe02ccce	-0.1277344
106	0xbd31bf58	-0.04339537
107	0x3df7c181	0.12097455
108	0xbdc1a4bb	-0.09455248
109	0xbe928f1f	-0.28624818
110	0xbe1d0816	-0.15335116
111	0x3e3ae864	0.18252712
112	0x3e9073f6	0.2821347
113	0x3e82e940	0.2556858
114	0xbe423677	-0.18966089
115	0xbe8a2c6d	-0.2698702
116	0x3dfb3df3	0.12267675
117	0x3e50df52	0.2039769
118	0xbeab4dd9	-0.3345783
119	0xbe52fee2	-0.20605043
120	0x3e5d0653	0.21584444
121	0xbdbf407d	-0.09338472
122	0xbe6beb99	-0.23039092
123	0xbe945ae4	-0.28975594
124	0x3c5e0925	0.013551985
125	0x3e742051	0.23840453
126	0x3e939242	0.28822523
127	0x3e8b822b	0.27247748
128	0xbdc3ef63	-0.09567144
129	0x3ebc431a	0.36769944
130	0xbe1e2f0e	-0.15447637
131	0xbe78326c	-0.24237984
132	0xbe9dff31	-0.30858758
133	0xbe022c31	-0.1271217
134	0x3e4aa691	0.19790103
135	0xbe29fac7	-0.1659957
136	0xbe329bea	-0.17442289
137	0xbdc8c77a	-0.09803672
138	0x3d41143d	0.04713844
139	0x3d58d34e	0.05293589
140	0xbd611014	-0.054946974
141	0x3e950228	0.29103208
142	0x3e3a147d	0.18171878
143	0xbddf7e52	-0.109127656

0.bias f4 [16]
0	0x3ddf617c	0.109072655
1	0x3ddf984b	0.109177195
2	0xbe97f58b	-0.29679522
3	0x3ca22e77	0.019797547
4	0xbe472266	-0.19446716
5	0x3cf2a711	0.02962068
6	0x3e1fd64e	0.15609095
7	0x3e6cf3f9	0.23139943
8	0x3e537099	0.20648421
9	0x3e5365ef	0.20644353
10	0x3e623db7	0.22093855
11	0x3c7afe74	0.015319455
12	0xbe4c2104	-0.1993447
13	0x3e922247	0.28541777
14	0x3e6ae0d8	0.22937334
15	0xbe584a01	-0.2112198

2.weight f4 [8, 16]
0	0x3dcbd79b	0.09953233
1	0x3c4a7700	0.012357473
2	0x3e5d9a62	0.21640924
3	0xbe1564dc	-0.14589256
4	0xbd184ea8	-0.037184387
5	0x3e2228f8	0.15835941
6	0x3d5a5351	0.053302113
7	0xbd5de787	-0.05417588
8	0xbdc7be87	-0.09753137
9	0x3e6cb0ae	0.23114273
10	0x3d09938f	0.03358799
11	0x3e739cc9	0.23790278
12	0x3e2712de	0.16315791
13	0xbe0845c1	-0.13307859
14	0xbd1e1ec4	-0.03860356
15	0x3dd68d6f	0.10476195
16	0x3e89fcaa	0.2695058
17	0xbd1dfd30	-0.038571537
18	0x3dab6ad8	0.08369988
19	0xbe691728	-0.2276274
20	0x3e75d6fc	0.24007791
21	0x3e7e05c2	0.24806884
22	0xbe7586fc	-0.23977274
23	0xbd709097	-0.05873164
24	0xbe29eafd	-0.16593547
25	0xbe288eaa	-0.16460672
26	0xbd9b0c3d	-0.07570694
27	0x3e1673e4	0.14692646
28	0x3d958cac	0.07302222
29	0x3d96b7a1	0.07359243
30	0x3e515f13	0.20446424
31	0x3e6b925f	0.23005055
32	0xbd2b4325	-0.04181208
33	0x3e505aae	0.20347092
34	0xbe086082	-0.13318065
35	0xbdeef182	-0.11667158
36	0x3e7a6bac	0.24455136
37	0x3dbc63e1	0.09198738
38	0x3df68f19	0.120390125
39	0x3dcf85f9	0.10132975
40	0x3cf5f16d	0.030022347
41	0xbdd16374	-0.10224047
42	0x3e10249d	0.14076467
43	0x3d6bdc7d	0.05758332
44	0x3d7a5463	0.061115634
45	0x3e117307	0.14204036
46	0xbde3b33d	-0.11118171
47	0xbd183d3b	-0.03716777
48	0x3d88b558	0.066752136
49	0x3e1c4446	0.15260419
50	0x3de93750	0.11387503
51	0xbe0d0e44	-0.13774973
52	0xbe710bb4	-0.2353962
53	0x3de9e34c	0.114203066
54	0x3e212bdc	0.15739387
55	0x3df12298	0.11774176
56	0x3e5c8130	0.21533656
57	0x3e7c5208	0.24640667
58	0x3dc43624	0.09580639
59	0xbe711468	-0.2354294
60	0xbcded4e0	-0.027201116
61	0xbe2d7fb4	-0.16943246
62	0xbe63f332	-0.2226074
63	0xbe501d12	-0.2032359
64	0xbe53f439	-0.20698632
65	0xbc8bfd30	-0.017088503
66	0x3e55a0f8	0.20862186
67	0xbe0d7128	-0.13812697
68	0x3e282b26	0.1642271
69	0x3e535439	0.20637597
70	0xbe39cf50	-0.1814549
71	0x3d09e330	0.03366393
72	0x3e43e897	0.19131695
73	0xbd3ebe19	-0.04656801
74	0xbe3f0054	-0.18652469
75	0x3e54e734	0.20791322
76	0xbe57f4d8	-0.21089494
77	0xbe4fde50	-0.20299649
78	0xbe35208d	-0.17688198
79	0xbd9be6cc	-0.076123804
80	0x3e3c99e2	0.18418077
81	0x3d85b714	0.0652906
82	0xbe54f7e0	-0.20797682
83	0xbd9a7cee	-0.0754336
84	0xbe623c04	-0.22093207
85	0xbd5cc197	-0.05389556
86	0xbda587e2	-0.08082558
87	0xbcc7a295	-0.024369517
88	0xbe15bf88	-0.14623845
89	0xbc58dbb6	-0.013235977
90	0xbc56a468	-0.013100721
91	0x3d567d2f	0.052365478
92	0x3d82024b	0.063480936
93	0x3e108fd1	0.14117362
94	0xbd5185f3	-0.051153135
95	0x3e85656f	0.2605395
96	0x3e55490a	0.20828643
97	0x3e150e2a	0.14556184
98	0xbd8bd248	-0.06827217
99	0xbe0c5dae	-0.13707611
100	0xbe7f3274	-0.2492159
101	0x3e492a8c	0.19645137
102	0xbe049a2d	-0.12949438
103	0xbbdfb563	-0.006827043
104	0xbe2d53e8	-0.16926539
105	0xbdde6bb9	-0.1086039
106	0x3c9dd421	0.01926619
107	0xbc6dc652	-0.014512615
108	0x3e692dc4	0.22771364
109	0xbb3fc0bb	-0.0029259163
110	0x3d600ce0	0.05469978
111	0xbe019dcc	-0.12657851
112	0xbdfdc830	-0.12391698
113	0xbdb667c8	-0.089065135
114	0x3e1c4200	0.15259552
115	0x3bd66b40	0.006543547
116	0xbd187aa8	-0.03722635
117	0xbe1fbf30	-0.15600276
118	0x3e726f84	0.23675352
119	0x3e7efe3c	0.2490167
120	0x3d3d02c0	0.0461452
121	0xbb600b00	-0.0034186244
122	0x3e01edd8	0.12688386
123	0xbe4b05c2	-0.19826415
124	0x3da91a04	0.08256915
125	0xbdbc0c4c	-0.09182033
126	0xbd85eca4	-0.06539276
127	0x3c00ee40	0.007869303

2.bias f4 [8]
0	0xbe4b41fc	-0.1984939
1	0xbc3ba9bc	-0.011454042
2	0xbe5dac9f	-0.21647881
3	0xbcfeb910	-0.031094104
4	0xbd39e0d5	-0.045380432
5	0x3e8e9c5d	0.2785367
6	0xbd5af38a	-0.053454913
7	0xbd5f8910	-0.054574072

4.weight f4 [1, 8]
0	0xbe40bc08	-0.18821728
1	0xbe2961b6	-0.1654118
2	0x3e98ce49	0.29844883
3	0xbdcfb389	-0.101416655
4	0x3cb1061a	0.021609355
5	0xbe798cdc	-0.2437014
6	0xbe9f7ff6	-0.31152314
7	0xbea4de75	-0.3220097
