nodejs-traceroute_model.pth (torch, 3543 bytes, 5 tensors)

0.weight f4 [16, 9]
000000 7a 69 4a be da 6f 42 3e 02 c9 8d 3e bd 92 07 be
       -0.19766799 0.1898798 0.2769242 -0.1323957
000010 b8 3a d1 bc 2a dc 7f be 22 2b 9f 3e 14 21 96 be
       -0.025540695 -0.2498633 0.31087595 -0.29322112
000020 f0 8d 9d be e3 61 8f 3d ed b0 74 be 67 da 47 3e
       -0.30772352 0.07001092 -0.23895617 0.19516908
000030 f5 80 b4 3d 67 00 56 be 90 f1 66 bd fe dc 73 be
       0.08813659 -0.20898591 -0.056382716 -0.2381477
000040 cf f2 72 3e c2 c3 46 3e bf 18 89 bd e9 59 69 be
       0.23725437 0.19410613 -0.06694173 -0.22788204
000050 99 5a 0a 3e 99 46 8d 3e 45 66 52 3e a6 2c 78 be
       0.13511123 0.27592924 0.20546825 -0.24235782
000060 6e c0 94 3d c6 ef 30 3d 18 86 99 be bc 77 92 be
       0.072632656 0.043197416 -0.29985118 -0.28606975
000070 9f 3b bd bd 16 f0 06 be bf 55 81 3e 11 9a 7d bc
       -0.092398874 -0.13177523 0.25260732 -0.015478627
000080 35 4b 65 be 9c 23 aa 3e bf d0 29 3e aa 69 14 3d
       -0.2239197 0.33230293 0.16583537 0.03623358
000090 8e 2f 57 3e 32 6f b1 bd 0e 79 82 3e 9c e1 5a be
       0.21014234 -0.08663787 0.25482982 -0.21375126
0000a0 ac 6a 62 3d cc c6 6c 3e d9 71 a6 bd 9a d1 08 bd
       0.05527751 0.2312271 -0.081271835 -0.033403017
0000b0 9c 0e b6 bd cb 03 1e be 2e 04 4d be 20 7f 48 be
       -0.08889505 -0.15431134 -0.20021126 -0.19579744
0000c0 b0 7b 90 3d 6b c5 83 be 9e 4a 45 3e 16 b7 e1 3c
       0.070548415 -0.25736555 0.19266745 0.027553122
0000d0 eb 26 da bd 36 71 46 be d6 22 16 3e a2 d1 a7 b8
       -0.10651954 -0.19379124 0.14661726 -8.002228e-05
0000e0 5b 81 f2 bd 17 4b 19 be 37 d3 5d be f3 d9 4d 3e
       -0.11841079 -0.14970051 -0.21662603 0.20102672
0000f0 5a 9e 0c be 82 5d 4c be d6 5e 35 be 7a 9e ef 3d
       -0.13732281 -0.19957545 -0.17711958 0.11700149
000100 fb b4 35 bd ab af 47 be 57 b0 a3 3e ff 84 71 be
       -0.04436205 -0.19500606 0.31970474 -0.2358589
000110 0a c1 3a be c6 02 26 bd 97 fc 22 be d8 48 2b 3e
       -0.18237701 -0.04052999 -0.15916668 0.16727006
000120 f9 76 36 3e 44 ce 62 3d 82 01 93 be 02 73 a9 bd
       0.17818822 0.05537249 -0.28712088 -0.08273889
000130 a5 89 df 3d f9 e6 dc 3d 86 51 15 be 1d 5d 9a be
       0.109149255 0.10786242 -0.1458188 -0.30149165
000140 c4 08 82 be 67 a2 69 3d 83 7d 30 be 32 30 21 be
       -0.25397313 0.057039645 -0.17235379 -0.15741041
000150 b4 2d 8d 3e 3d 1c 08 be d4 cd cc bc 30 57 54 be
       0.2757393 -0.13292022 -0.02500049 -0.20736384
000160 f6 53 84 be 16 69 b3 bd 6b 48 9a 3e 4d 77 bc bd
       -0.25845307 -0.08760278 0.30133376 -0.09202442
000170 9b cd 71 3e 79 ea ab be 35 f5 d5 bd 56 05 65 be
       0.23613589 -0.33577326 -0.1044716 -0.22365317
000180 79 e4 31 3d c9 0c 44 be 37 22 10 3e c2 56 70 be
       0.04343078 -0.19145502 0.14075552 -0.23470595
000190 71 9e b2 be 98 5e 2f be bb cb 1b 3e 80 04 8c be
       -0.34886506 -0.17125928 0.15214436 -0.27347183
0001a0 40 1d 48 3e a8 51 74 be e6 f5 bd bd f8 fe 95 3e
       0.19542408 -0.23859274 -0.09275417 0.29296088
0001b0 e3 f6 91 3d 2f 92 9f be 25 49 dd bd 3d 26 8c 3e
       0.07127168 -0.31166217 -0.10804967 0.27372923
0001c0 a4 e2 b2 bb fb 09 c6 3d 97 d3 11 bd 33 28 94 be
       -0.0054591466 0.096698724 -0.03560218 -0.2893692
0001d0 21 24 d3 3d 96 1b 05 bd 56 3b bb 3b d3 3d 44 3e
       0.103096254 -0.03249701 0.0057138605 0.19164209
0001e0 ab 2e f4 bc 96 f8 0d 3e 36 d0 13 bd 63 54 1c 3e
       -0.02980741 0.1386436 -0.036087237 0.15266566
0001f0 40 1b 8c 3c 76 69 64 bd 60 8c bc 3c ee 99 a2 3e
       0.017102838 -0.055764638 0.023016155 0.31758064
000200 0a b6 92 3d 25 2a 46 3e ff 50 89 be 45 8d 0b be
       0.071636274 0.19352014 -0.26819608 -0.13628109
000210 b9 4f a1 3e d1 3d 82 3d 3b cc 4c be 47 4a 93 3e
       0.31506136 0.06359447 -0.19999783 0.28767607
000220 9f ab 25 be f6 0d 9b 3e ce 35 54 be 68 58 ee 3d
       -0.1617875 0.3028409 -0.2072365 0.11637956
000230 05 90 fd 3d 9e 7a 7c be 56 ef 8f be d8 b3 73 3e
       0.12380985 -0.2465615 -0.28112286 0.23799074

0.bias f4 [16]
000000 2e ea c3 3d 63 ae 92 3d f9 dc ac 3d 05 ff 0b 3e
       0.095661506 0.07162168 0.08440585 0.13671501
000010 41 e4 72 3e cb ec 23 3d fb e0 b4 bd 1d f6 08 be
       0.23719884 0.040020745 -0.08831974 -0.13375135
000020 c4 83 2a 3e 1f 4b 3b 3e 76 90 ad 3d 23 d0 96 be
       0.16651827 0.18290375 0.08474819 -0.2945567
000030 36 6e 14 3e 26 1c 2f 3e 7c 15 25 3e e3 b9 7c bd
       0.14495167 0.17100582 0.16121477 -0.061700713

2.weight f4 [8, 16]
000000 07 1f 30 be 50 33 69 3e 11 1c 2c 3e a7 7e be 3d
       -0.17199336 0.2277348 0.16807581 0.09301501
000010 1c 64 0d 3e 58 34 06 3d 2f 6d ab bd 7d e9 13 3e
       0.1380772 0.032764763 -0.083704345 0.14444537
000020 ab 42 30 be f0 22 11 be af 16 14 3e 34 d0 4d 3e
       -0.17212932 -0.14173484 0.14461778 0.20098954
000030 13 02 eb bd c0 5a 6d bc 6a 31 8d 3e 04 dc 23 3c
       -0.11475005 -0.0144869685 0.27576762 0.010001186
000040 06 cd 7e 3e 54 f3 86 bd 7c 96 41 be 4a 8a 4f be
       0.24882898 -0.0658938 -0.18905061 -0.20267597
000050 c4 91 e5 bd 60 97 0b 3c 7c 88 e4 bd 68 18 7f be
       -0.11209443 0.008519977 -0.11158845 -0.24911654
000060 84 cb 22 3e 50 dc 6c bd 00 4e 75 bc 14 53 4f be
       0.15897948 -0.057827294 -0.01497221 -0.20246536
000070 00 27 5b 3d 80 90 7f bb 20 7e 79 be a0 be 58 3c
       0.05350399 -0.003899604 -0.24364519 0.013229042
000080 10 5b a4 3c 00 c1 7f bd bc 20 3f 3e 6a 90 67 3e
       0.020062953 -0.06243992 0.18664831 0.22613683
000090 00 d7 76 bc ee 58 7d 3e 64 e4 5d be a8 fd e7 bd
       -0.015065908 0.24740955 -0.21669155 -0.11327678
0000a0 00 9a b9 bc 36 89 58 3e 20 e6 17 be 80 67 51 bd
       -0.02265644 0.21146092 -0.1483388 -0.051124096
0000b0 80 b3 6f be 94 21 36 3e ea ee 4b be 00 e2 47 3c
       -0.23408318 0.17786247 -0.19915357 0.012199879
0000c0 c9 c9 5b bd b9 94 7b be f0 dc 9b bc 48 73 17 3d
       -0.053659234 -0.24568452 -0.01902625 0.036975175
0000d0 39 c9 ac bd 82 4e 59 3e af 8b 0a be d1 43 3e be
       -0.08436818 0.21221355 -0.13529848 -0.18580557
0000e0 a2 97 57 3e 7a 1d 3c be b0 b5 7f 3c 52 2d 30 3e
       0.21053937 -0.1837062 0.0156072825 0.17204788
0000f0 95 52 2a 3e 64 17 e7 3d fc cf 81 3d 10 91 a1 bd
       0.16633065 0.11283758 0.06338498 -0.078889966
000100 09 49 5d 3e fe d5 50 3e 26 38 81 be de 25 00 3e
       0.21609892 0.20394132 -0.2523815 0.12514445
000110 5a 6b 78 bc f0 c5 95 bd 17 da 6b be 11 2c 93 bd
       -0.015162313 -0.07313144 -0.23032413 -0.071861394
000120 a7 ef 03 be 7f 3f 76 3d 3b a8 50 be df da 47 3e
       -0.12884389 0.06011915 -0.20376675 0.19517086
000130 bf 80 b5 3c 7c d7 57 be 42 15 a0 3d 36 87 d4 bd
       0.022156117 -0.21078295 0.078165546 -0.10377352
000140 dc 1e 53 3e 94 78 5e 3e e2 11 90 3d b2 5b 75 3e
       0.2061724 0.21725684 0.07034661 0.2396076
000150 89 3a 4f be 00 af ea 3b ee 92 17 bd b4 73 06 3e
       -0.20237173 0.007161975 -0.037005357 0.13130075
000160 01 46 0f be 87 ab 4b 3d 85 cf 5c 3e 2b 68 ba bd
       -0.13991548 0.049724128 0.21563537 -0.091019
000170 66 a3 77 3d a0 07 69 bd 97 94 43 be d7 82 3c be
       0.060458563 -0.056892037 -0.19099651 -0.18409286
000180 d7 d0 e4 bd ea 71 3b 3e 98 53 2d 3e 7d 41 04 3e
       -0.111726455 0.18305174 0.1692642 0.12915607
000190 f5 90 16 3e 04 15 a4 3d 03 22 67 bd 65 ba c4 bd
       0.14703734 0.08011821 -0.05642892 -0.096058644
0001a0 4f 76 04 be 4f df 00 3e 39 63 33 3e 72 17 ef bd
       -0.12935756 0.12585185 0.17518319 -0.11674394
0001b0 9e e7 35 3e c0 47 17 3e ce 33 c5 3d 71 b3 08 be
       0.17764136 0.14773464 0.096290216 -0.13349701
0001c0 c2 10 8a 3d 0a 73 ae bd e4 5c 3f be a9 81 58 3e
       0.067414775 -0.08518036 -0.18687779 0.21143211
0001d0 5c 8d 60 be 70 a3 72 3e b5 40 25 3e 72 d6 d4 bc
       -0.21928924 0.23695159 0.16137965 -0.025981162
0001e0 c4 06 01 3d 82 f9 41 be 3e 6c d6 bd 80 25 24 be
       0.031500593 -0.18942836 -0.10469864 -0.1602993
0001f0 29 02 54 3e f8 9d 14 be 87 44 15 3e 37 af 60 3c
       0.20703949 -0.14513385 0.14576922 0.0137136495

2.bias f4 [8]
000000 dc bc 0f 3d c0 3c 9e 3c e0 16 32 bd ac 0a 4d 3e
       0.03509222 0.019316077 -0.043478847 0.20023602
000010 b6 ff 06 3e 0f 85 a5 3d 33 9b 03 3e 77 7f 08 3c
       0.13183483 0.080820195 0.12852173 0.008331171

4.weight f4 [1, 8]
000000 52 23 8c be 8b 64 74 be 27 91 99 3e aa 8f 2d 3d
       -0.27370697 -0.23866479 0.29993555 0.042373337
000010 0a 5a 88 3e 79 41 bf be 9b b2 95 3e 68 5b 06 be
       0.26631194 -0.3735464 0.29237828 -0.13120806
